cache/checkpoint_0_actor.pth (torch, 172292 bytes, 10 tensors)

bn1.weight f4 [33]
00000000: 27df a73f a72e 693f 977e 9f3f b29f a03e
00000010: 8e6a 093e b98d 8f3e f525 093e 708a 173e
00000020: 1403 563e c779 383e 5487 a53e 331d a43e
00000030: f53d c13e cef9 e73f 656e 9a3f bf97 da3f
00000040: 1cf0 b03e 9050 9b3e a18b 823e 05f8 ee3e
00000050: 50c9 9a3e 21dc 943e 640e 7a3e 54ab 773f
00000060: 1fb0 193f 379e 803f bce0 de3f 0000 803f
00000070: 262e cd3f 0000 803f 0000 803f 0000 803f
00000080: 9916 da3f
1.3114976 0.9108681 1.2460507 0.31371838 0.13419554 0.28037813 0.13393386 0.14798903
0.20899612 0.18015204 0.3232981 0.32053527 0.37742582 1.8123109 1.206494 1.7077559
0.3455819 0.30334902 0.25497153 0.466736 0.30231714 0.29074195 0.24419552 0.967458
0.60034364 1.0048283 1.7412333 1.0 1.6029708 1.0 1.0 1.0
1.7038146

bn1.bias f4 [33]
00000000: 2ed9 34be 3ec6 83be 3d10 273e 2bd7 903d
00000010: e66f 2d3d 2903 1abc e48a 293c 342e 9cbc
00000020: 2800 b13c 327e d73c e505 c3bd a9f4 85bd
00000030: 2eb7 4f3d 473c d1be b579 b8bc ebee c43e
00000040: d9a7 653c 1674 253d 3492 393d 689a 373c
00000050: 7b1c 5c3d cbff e5bb 24ad 5e3c 0493 e5bc
00000060: 2271 1fbd 4417 863d 82db 9cbe 2bec 913b
00000070: 1100 ec3e 7e97 f5be e33d 5f3f 505a 333f
00000080: 76fe ef3d
-0.17660972 -0.25737184 0.16314788 0.0707229 0.042343043 -0.0094001675 0.0103480555 -0.019065
0.02160652 0.026305292 -0.09522609 -0.06540806 0.050711803 -0.408663 -0.022518972 0.3846353
0.014017069 0.04039391 0.045305446 0.011206247 0.0537381 -0.0070190183 0.013591085 -0.028024204
-0.03892625 0.06547406 -0.3063622 0.0044532022 0.460938 -0.47967142 0.87203807 0.7005968
0.117184564

bn1.running_mean f4 [33]
00000000: 7528 dc3e 9ef8 32c0 78ed 2bbf 93ec 5b3f
00000010: d0b8 3f3d f4e2 b83b 1d85 b9bd 99bb d7b9
00000020: 6d04 43bc c162 013c 0399 0a3d d2c6 d33c
00000030: 7d87 46bc 968d 193e 7b69 40c0 7454 edbe
00000040: be44 373d dd83 803c 7223 4b3d c26f 923e
00000050: 43de 473c c23a b63c 027e 643d 7443 5e3c
00000060: cc1f f43d 5023 63bc 0f8c 24bd fcff 7fbf
00000070: 2086 9a3d 0000 0000 fcff 7f3f 0000 0000
00000080: 6dfe bebc
0.42999616 -2.7964244 -0.67159224 0.8590786 0.04680711 0.0056422893 -0.090585925 -0.00041147767
-0.011902911 0.00789708 0.03383733 0.02585164 -0.012117264 0.14995417 -3.006438 -0.46353495
0.044743292 0.015687877 0.04959435 0.2860089 0.012198987 0.022244815 0.055784233 0.013565887
0.11920127 -0.0138634 -0.040172633 -0.99999976 0.075451136 0.0 0.99999976 0.0
-0.023314679

bn1.running_var f4 [33]
00000000: 818d 5940 e0d7 1a3f c3c9 6540 2b03 a83d
00000010: ea17 733d 5ac6 f63c 4fde a33d f17e 813e
00000020: 23bd 2b3d 1d36 c73d c58e de3f c32f 663f
00000030: e980 e93f 9ed0 8941 eac4 0240 738b 9941
00000040: c711 d53d 7fdd 333e af67 9c3d 5ff3 0e3f
00000050: 88ca ba3f 9cc8 023f e9c9 173f 0159 c840
00000060: 600a 5040 4da4 fe40 e5b9 0142 0400 0000
00000070: c2f7 fc41 0400 0000 0400 0000 0400 0000
00000080: fe95 a33e
3.3992617 0.6048565 3.5904396 0.08203729 0.059348978 0.030123878 0.080013864 0.2529216
0.04192842 0.09727118 1.738732 0.8991663 1.8242465 17.226864 2.0432687 19.19309
0.104037814 0.17564963 0.076369636 0.55840105 1.4593058 0.51087356 0.59292465 6.2608647
3.2506332 7.9575562 32.431538 6e-45 31.620975 6e-45 6e-45 6e-45
0.31950372

fc1.weight f4 [256, 33]
00000000: 5fc8 b23c fd72 b83e c167 b6bd 1e08 40be
00000010: 0677 0fbd 56a5 aabe 4b40 f53e 79e2 9c3e
00000020: e674 d4be 363b 293e 93b8 493e 5eec 6f3d
00000030: 3257 5b3e efc5 dcbd 46a2 35bf 62ec 27bf
00000040: cce5 a1be 2564 0fbe 665b 3bbd d12e 0a3f
00000050: 9eba 273e ec4a b7bd cc7a f1bd 77bb 2a3f
00000060: 4291 5c3e fcd6 8a3d 8a22 cabc 6cf7 cf3e
00000070: 8c78 90be f0d6 173f e603 0dbf 08c0 14bf
00000080: f839 9f3c 0a1c 9a3d 5ac3 913e 568d 8dbe
00000090: a5e0 c2be 8aa0 c83d fcd4 d13e 71d4 b6be
000000a0: aa24 683c 69bc 833b 5e96 543e 459a 0a3e
000000b0: 4359 1a3e f0d0 833c e37f 27bf dc9f 8bbe
000000c0: 243a 1a3f de19 913e 5256 083f 31c1 9a3e
000000d0: c333 51be ceca 47be 0d9e c93d 8e9b 8abe
000000e0: 4c65 0ebf fa89 bcbe 16eb db3e 42e5 d43e
000000f0: 933d 8bbd 60ed 2fbf c94a 873e e508 65be
00000100: 44a1 80be 63b0 05bf 19e6 283e ddd0 9e3e
00000110: b7b0 a3be 6c60 dc3d 42ed 81be 08f2 893e
00000120: f25f ce3d ab81 ee3b 258a 0e3e b024 2e3e
00000130: b84d 463e 337c a63e 5def d1be 20cb 983e
00000140: 8e6e 08be de60 b9be 136a 9cbd 9018 e93d
00000150: c45b 003f 6b2e 02bd d77e 58bc 2ec4 6b3e
00000160: 9e94 a4be ce5a 6b3c bbc8 c5be 992c 2cbf
00000170: 2181 26bf 6f45 993e 2237 a6bd 042d 253f
00000180: 3a98 24bf e70c 1cbf d781 53bf cc95 7abe
00000190: b19c 9e3e fb7a 1b3f 38e9 38be 1319 ec3d
000001a0: b364 353f 9917 e73e 635e 813c 1b9e 10bf
000001b0: 768e fcbe f3c0 b8bd 4c9e cf3e 4e23 2f3e
000001c0: 1d6d 21bf 6b65 0ebf cc54 263e d056 efbe
000001d0: ce5d 5fbe 9d3f eabe d8f4 d7be 9d93 1abe
000001e0: c475 59bd 4764 b8be 38b4 eebc d0e0 b4bd
000001f0: 652c c63e 5a4f e53e e030 0bbd 8c19 bbbd
00000200: f105 223f 2c78 26bf 8bb6 0ebf 0f07 2bbd
00000210: cf0b 853f 880e 4f3c 3873 4fbe b348 633e
00000220: 92f9 673e a211 eabe a958 ab3d f5db a8be
00000230: 6f9e 973e 4ee1 aebb f9c4 ed3e 01a0 803d
00000240: 9a7f 6fbe 7a54 34bf f42b fabd d4cf bc3e
00000250: a58e 31be 517a 713e 341e 1d3e 158f e53d
00000260: 71c8 903e 9764 0bbd b29b 05be 7daa fcbe
00000270: cabe 0ebe ef19 bc3e b851 b2be 865b dd3d
00000280: fca5 90bd 9ac2 9b3d ba87 19be 651c 04bd
00000290: 79c2 19bf 4d69 583d 41d2 64be 6088 f23e
000002a0: 4b2c 1cbe 8d7a f6bb dd72 073e 9d7a 4ebe
000002b0: bb37 4c3d bf7e 8a3e eeb7 503e ebab 1ebd
000002c0: 7497 d9bd b6cc 24be c974 d5be 780d 243e
000002d0: cdec 66bf 44c1 a8bd 87f1 043e 0ea5 c43e
000002e0: f935 843c 8694 77be fd9e 0cbe 4a7a e13c
000002f0: a988 083c dc53 c6bd c8f0 53bf a354 4b3f
00000300: d809 4a3e 26b6 3f3f c4e3 4e3d 4998 a03c
00000310: 55ed fbbd 0db4 88bf 0348 ffbe 0b1b 9cbe
00000320: d7ef 9cbe 9c30 abbe e140 01bf 94f0 e0be
00000330: 230c 98be 3c33 e23e 3981 2dbe b779 38bd
00000340: 138b 1b3e 0802 54be 5383 61bd 0807 053f
00000350: 20fa 153e f3f7 1f3e c082 923e 36e5 573e
00000360: 0be6 0dbf 5757 5f3f 1009 86bd 5520 a8be
00000370: 0df3 27be 5e31 213e 9dc3 853e 1e54 74be
00000380: 4ea7 47be 87c3 a33d f3a9 fc3e a5db fd3e
00000390: 895f 0fbf b1de e9be 4f27 aebe cc42 693d
000003a0: 0049 4bbe 9eb9 433f 9277 f6be dcbe 81bd
000003b0: 9015 ba3e 584e 093f 12e2 cf3d 3426 7abe
000003c0: 2609 373e 0a75 35be 5cf4 9dbd 7450 003f
000003d0: e6e9 4e3c 299a 60bd 2082 ebbe f46b 6bbd
000003e0: 2427 20bc e9ec 883e 6e3e 73be d86f 0b3d
000003f0: abdd 57be 900f 753e 1d51 183d aaa7 15be
0.02182406 0.3602523 -0.08906508 -0.18753096 -0.03502562 -0.33329266 0.47900614 0.30641535
-0.41495436 0.16526493 0.19699316 0.058575027 0.21419981 -0.1077994 -0.70950735 -0.65595067
-0.31620634 -0.14003046 -0.04574146 0.53977686 0.16379783 -0.08949837 -0.11791 0.666923
0.21539786 0.06779286 -0.024674673 0.40618455 -0.2821697 0.59312344 -0.55084074 -0.58105516
0.019436821 0.07524879 0.28469354 -0.27646893 -0.38062015 0.097962454 0.40982807 -0.35708955
0.014168898 0.004020263 0.20760486 0.13535412 0.15073113 0.01609084 -0.65429515 -0.272704
0.60244966 0.28340048 0.53256714 0.30225518 -0.20429902 -0.19510958 0.09844599 -0.27071804
-0.55623317 -0.36824018 0.42952794 0.4158116 -0.06798854 -0.6872158 0.26424244 -0.22366674
-0.25123036 -0.5222227 0.16494025 0.31018725 -0.3197076 0.107605785 -0.25376326 0.26942468
0.10076894 0.007278641 0.13919885 0.17006183 0.19365585 0.3251663 -0.41002932 0.29842472
-0.13323423 -0.36206716 -0.076374196 0.11381638 0.50140023 -0.03178255 -0.013213835 0.23024055
-0.32144636 0.014364911 -0.38629708 -0.6725555 -0.65040785 0.29935786 -0.081159845 0.64521813
-0.6429478 -0.6095719 -0.82619995 -0.24471205 0.3097892 0.6073453 -0.18057716 0.1152822
0.7085678 0.4513519 0.015792077 -0.5649125 -0.4932744 -0.09021177 0.40550458 0.17103311
-0.6305712 -0.556235 0.16243285 -0.4674592 -0.21813127 -0.45751658 -0.42178988 -0.15095372
-0.053090826 -0.36014006 -0.02913867 -0.08831942 0.38705745 0.44787103 -0.033982158 -0.09135732
0.63290316 -0.6502712 -0.5574729 -0.04175478 1.0394229 0.012637742 -0.20258796 0.22195701
0.22653797 -0.45716578 0.0836652 -0.32980314 0.29613063 -0.005336917 0.4643934 0.06280518
-0.2338852 -0.704414 -0.12215415 0.3687731 -0.17339571 0.23581816 0.15343553 0.11208931
0.28277925 -0.034031477 -0.13047674 -0.49348822 -0.13939968 0.36738536 -0.3482797 0.10808472
-0.07062909 0.07605477 -0.14993182 -0.03225364 -0.60062367 0.052834798 -0.2234583 0.4736967
-0.15251271 -0.0075219334 0.1322741 -0.20163961 0.049857836 0.27049825 0.20382664 -0.038738173
-0.106245905 -0.16093716 -0.41690663 0.16020763 -0.9020508 -0.082399875 0.1298276 0.38407177
0.016139017 -0.24177751 -0.13732524 0.027524132 0.008333364 -0.09683964 -0.8278928 0.7942602
0.19730318 0.7488731 0.050510183 0.019603865 -0.12301127 -1.0679947 -0.49859628 -0.30489382
-0.30651733 -0.33435524 -0.5048962 -0.43933547 -0.2969676 0.44179714 -0.16943826 -0.04503795
0.15189771 -0.207039 -0.05505688 0.51963854 0.14646196 0.15621929 0.2861538 0.21083531
-0.5542914 0.87242645 -0.06544697 -0.32837167 -0.1640131 0.15741488 0.26125804 -0.23860213
-0.19497415 0.07996278 0.4934841 0.49581638 -0.5600515 -0.45677713 -0.34014365 0.056948468
-0.19852066 0.76455104 -0.481381 -0.06335232 0.36344576 0.5363517 0.10150541 -0.24428636
0.17874584 -0.17720428 -0.077126235 0.5012276 0.012629008 -0.05483452 -0.45997715 -0.057476
-0.009774957 0.26743248 -0.23754284 0.03404221 -0.21080653 0.23931718 0.03718673 -0.1461474

fc1.bias f4 [256]
00000000: 2db8 30bf 41ca 80be 6ba1 11bf 956f 02bf
00000010: 8c78 263e 01f4 9ebd f323 9bbe 1d37 40be
00000020: c725 86be 8181 8dbe 18c2 6fbe cffe 7dbc
00000030: 3cfd 78be d530 bbbe cbed 0bbf 4161 b2bd
00000040: 7b9f 3a3e 7f07 b0be a8bc 9fbe 6923 56be
00000050: 0d4b 8fbd 5a5f 26be 7f0f debe d751 28be
00000060: faa1 0bbf 8fc7 9fbe 6dae 063d 7117 1abe
00000070: 5ec2 a23d edbf 0abf 2b7f bfbe cd94 08bf
00000080: c513 64bd 7032 acbe 618a 1ebf 9722 41bf
00000090: f5c8 02bf 9e9d 1abf 4c46 fabd 840e 8ebe
000000a0: 1805 fcbe ab87 ccbe 3803 123e eda1 8abe
000000b0: 6880 83be a259 01bf 31cb 75be 5e6a f1be
000000c0: 33fd e0be 1868 5abf 46ab 463d 3b39 4ebf
000000d0: d66f d8be 81bf edbe 363f 13bf cfd2 2fbe
000000e0: 4554 13bf c7e4 91be 9e98 61bf 299b f9be
000000f0: a718 d6be 4eb1 03bf 3916 2fbf 6a22 67be
00000100: f94e 08bf ce3c c7be 2055 0ebf c425 dabe
00000110: 508c 52bf 9c67 13bf 2f73 11bf e7e5 00bf
00000120: 3cc8 0fbf a482 68bd ed43 d6be 8295 263b
00000130: 6c1d e4bd 2959 11bf 9588 35bf a866 f0be
00000140: ed5a 68be f0de fdbd 3da3 10bf 70c1 04be
00000150: 7c6f 15bf 5b1b d5be 582f 9fbe 77ca 6fbe
00000160: 4859 2cbf 569a a6be 8bbd c4be e48e 15bf
00000170: 2e0b c6be 4ffd a5be 4cd6 04bf 4aed cbbe
00000180: 06cc d6be 3685 dfbe 5674 80be 9f1f 0fbf
00000190: 1975 febe 8765 b1be 81ef 64be a3e1 7bbe
000001a0: 82d9 e6be ed88 00bf aeb7 ac38 06cd cdbe
000001b0: dab0 c4be 5cff 3ebf 0dbb 19be cf1f a2bd
000001c0: 2be3 7abe 8522 00bf 347f fcbe 53d9 55be
000001d0: 718b 8dbe c63a 6cbe 3e93 efbe b533 2ebf
000001e0: 8a9a 43bf 20e8 e1be 9e05 0cbe ce9d 12bd
000001f0: 368c 90be ea64 cdbe 2ec7 4ebf d679 cbbe
00000200: 33a6 fdbd b48f 6fbe eb52 40bf 391c e5be
00000210: d224 bbbe 6525 10bf af85 06bf 768f d8be
00000220: 972d 863c 32e9 ddbd 56eb 4bbf dd40 a7bd
00000230: 578a 13bf 2269 ebbe c1ca 5f3c ae3d 71be
00000240: 019f 01bf 4f22 34bf a75d 5bbe dc15 73be
00000250: e4f7 d9be 2dae 0cbf 8083 2fbf 227a debe
00000260: b631 10bb 7e37 e7be 8adc 0ebe 8ec6 d2be
00000270: 65a0 adbe 61b6 2bbc 8a7f 2b3d 3f15 04bf
00000280: 7671 b0be 7156 89be 07e7 01bf 0480 3dbf
00000290: d96c 12be 37d7 b73b 907f 37be 3544 8bbe
000002a0: c23f a9be c30d 93be 9b64 c1be 4564 c4be
000002b0: 32da 47bf c371 01bf 50b2 01be e5de adbe
000002c0: a78f 07bf e91e eabe 187d 32bf e329 82be
000002d0: 043b 0abf cf34 eabe 177d c3be 471b 8fbe
000002e0: d65a a8be aa8a 9ebe 1444 07be 5248 5abf
000002f0: 3b0d 0dbf 782d c6be 049c afbe b073 1dbf
00000300: 8d96 06bf cbe4 2fbe ff52 abbe b751 24bf
00000310: 84a5 dabe 29bf 93be b68e 45be 2e4b c4be
00000320: b397 bebe 4721 25bf 79cb 1abe 9d62 05bf
00000330: 2c5f f3be 4482 49bf 40ce c6be 3af1 6e3d
00000340: 139b 37bf 4920 dbbe 998f 1fbf 123c 9ebe
00000350: fbbd eabe 812f b1be 490c eabe a63d f1be
00000360: 94bb bbbe 2ec3 3fbf c19a e9bd 273f 23be
00000370: d21f aebe b7f9 3fbe dc24 a5be 8458 b6be
00000380: 4174 a4be 4073 98be a08b 85be 8391 9abe
00000390: 7f34 d0be bc50 24be d293 67be 737a f9be
000003a0: b49b 90be 2e6e b0be fba1 babe 5036 6abe
000003b0: fc8d e1be b707 6ebe 80da 08be 937a f9bd
000003c0: 8a2f 14bf 472f 0ebf ff03 febe 8b23 11bf
000003d0: d1a0 cbbd a8cc 90be 7e83 e3be 1fd5 babe
000003e0: ddb1 bfbe ae4c 0bbf 5f10 b9be aecb ab3e
000003f0: eafa b2bc f49f ffbe 498e 81be 4731 4bbf
-0.6903103 -0.25154307 -0.5688693 -0.5095151 0.16256922 -0.07761384 -0.30300865 -0.18771024
-0.26200697 -0.27637866 -0.23413885 -0.015502646 -0.24315351 -0.36560693 -0.5465972 -0.08709956
0.182249 -0.3438072 -0.3119862 -0.20911945 -0.06996737 -0.16247311 -0.43371198 -0.1643747
-0.5454403 -0.3120694 0.03288119 -0.15048005 0.07947229 -0.54199106 -0.3740171 -0.5335205
-0.055682916 -0.3363223 -0.619299 -0.75443405 -0.51087886 -0.60396755 -0.12220439 -0.2774545
-0.49222636 -0.39947256 0.1425904 -0.27076665 -0.25683904 -0.50527394 -0.24003293 -0.47151464
-0.43943176 -0.85315084 0.048503183 -0.80556077 -0.42272824 -0.46435168 -0.5751833 -0.17170261
-0.5755046 -0.28494856 -0.881235 -0.4875119 -0.41815683 -0.5144242 -0.68393284 -0.22571722
-0.532455 -0.38913578 -0.5559864 -0.42606938 -0.8224535 -0.5757997 -0.5681638 -0.50350803
-0.5616491 -0.056765214 -0.41848698 0.0025418703 -0.11138424 -0.5677667 -0.7091153 -0.4695332
-0.22690935 -0.123960376 -0.5649908 -0.12964416 -0.58373237 -0.41622433 -0.31090808 -0.23417078
-0.6732373 -0.32539624 -0.3842586 -0.5842116 -0.38680404 -0.32419822 -0.5188949 -0.39829475
-0.41952533 -0.4365632 -0.25088757 -0.55907625 -0.49698713 -0.34647772 -0.22356988 -0.24597792
-0.4508782 -0.5020893 8.235812e-05 -0.40195483 -0.38416177 -0.746084 -0.1501276 -0.07916223
-0.2450072 -0.5005267 -0.49315798 -0.20883684 -0.27645448 -0.23069295 -0.46792024 -0.6804765
-0.7640768 -0.4412241 -0.13674018 -0.035795026 -0.28231972 -0.40116054 -0.80772674 -0.3974139
-0.123852156 -0.23394662 -0.7512652 -0.44748095 -0.3655153 -0.5630706 -0.52547735 -0.42296952
0.01637916 -0.10835494 -0.7965597 -0.081666686 -0.57632965 -0.45978647 0.01365918 -0.23558685
-0.50633246 -0.7036485 -0.21422444 -0.23738807 -0.42571938 -0.5495327 -0.6856003 -0.43452555
-0.0022002286 -0.45159525 -0.13951316 -0.4116711 -0.33911434 -0.010480494 0.041869678 -0.5159492
-0.34461564 -0.26823762 -0.50743145 -0.7402346 -0.14299335 0.0056103724 -0.17919755 -0.27200475
-0.33056456 -0.28721437 -0.37772068 -0.3835775 -0.78067315 -0.5056421 -0.12665677 -0.33959118
-0.5295357 -0.45726708 -0.6972213 -0.25422582 -0.539963 -0.45743415 -0.38181373 -0.27950498
-0.32881802 -0.30965167 -0.13209563 -0.852666 -0.55098313 -0.38706565 -0.34298718 -0.6150465
-0.5257347 -0.17177121 -0.33461758 -0.64187187 -0.42704403 -0.2885678 -0.19292721 -0.38338608
-0.37225112 -0.645039 -0.15116681 -0.52103597 -0.47533548 -0.78714395 -0.3882923 0.05833552
-0.71721 -0.4279807 -0.6232849 -0.30905205 -0.4584807 -0.34606555 -0.45712498 -0.47117347
-0.36666548 -0.74907196 -0.1140647 -0.1594206 -0.34008652 -0.18747602 -0.32254684 -0.35614407
-0.32119945 -0.2977543 -0.26083088 -0.30189142 -0.4066505 -0.16046423 -0.22614983 -0.48726234
-0.28243792 -0.3445906 -0.36451706 -0.22872281 -0.44053638 -0.2324513 -0.13364601 -0.12181582
-0.5788504 -0.5554089 -0.49612424 -0.5669486 -0.09942783 -0.2828114 -0.44436258 -0.36490723
-0.37440386 -0.5441388 -0.36145303 0.33553833 -0.02184816 -0.49926722 -0.25303867 -0.79372066

fc2.weight f4 [128, 256]
00000000: cfa0 16bd 16a2 103e fcc5 cabe ae3f e2be
00000010: f9bb 22be 791d fe3d a072 4abe 3b49 4b3e
00000020: 21dc c2be 4326 c3be 3811 1cbf 55eb e6bd
00000030: 0b0a 103e b915 b83d faec c3be 289f ba3e
00000040: 95dc aabc 3fe1 8ebe eb33 36bd d16c 59bc
00000050: 8818 3b3a 0b62 8abf 2bba 45be 075d 33be
00000060: 8b2d d63d 784e dfbd e328 e2be e214 4dbf
00000070: d7f3 9abe 362a 96be 748c 91be 701e aa3e
00000080: 022c c0be b31b b6be 105a a0be 4364 773e
00000090: a9bd a1be f97a 9fbf 93df 3fbd 6873 5c3e
000000a0: f120 5dbe d198 7fbe f162 fbbe a409 003f
000000b0: bf5f f1be e863 78be fd67 973c 310c 3c3e
000000c0: f378 4f3e c2f6 3bbd 9fbf c8be e3b1 2b3f
000000d0: 2d61 3abe c999 1cbf f848 1bbf 0343 c73e
000000e0: 78c9 453e befd f43e 701e 073f 05da 993e
000000f0: a6aa 5c3e b6b7 19bf aee4 4e3c 5008 58bf
00000100: 4b5b 3d3e 95ec 7c3e cb4f 183f d47f 213f
00000110: 0a40 b8be 9f3c 36bc 3c7a 2d3f fe0e 2dbe
00000120: 3f2d 1d3f 78fe 39bf 5902 563e 545f dbbd
00000130: 600a e43c d894 313e a569 d73e 8d08 ad3e
00000140: ae44 d73d 9241 ac3e b577 83be bd00 6dbe
00000150: 7a53 913d 6977 19be efc3 763d 1b08 af3c
00000160: fe20 2d3e 2913 3dbf f5c2 113d d9f9 f03d
00000170: 0e48 3dbf c8e5 7a3e 8eeb 403d a4eb 483e
00000180: 0eb5 80be 4d57 97be 0b01 3f3e b18e d5be
00000190: 779e b1be 2637 173f c2cb 9bbc 368a fa3d
000001a0: 66fc d23e b94c 993e 180c 20bf 62cd bd3e
000001b0: a706 1a3d 96c9 66bf 8feb bcbd c437 94bf
000001c0: 24fd bf3e f437 063f 5a10 843e e18a 5dbf
000001d0: 779a 763f b1ee b53e 653e 0ebf a548 e53e
000001e0: 466c 4e3c 7bce 063e 39ac 70be aaee 4d3e
000001f0: 216c efbd 15b5 e4be 9e73 e4be 54a1 9f3e
00000200: 0e97 c43e dce0 5fbe 436b 153f 03b9 b03e
00000210: e224 60be 9423 d83c a3d5 d83d f2b5 a5bd
00000220: 1d4e 29bf 14e4 1b3f 4f32 0e3f 0676 9cbf
00000230: 7064 003e 19be edbe db0a c73e d558 14bf
00000240: d490 453e a14c 37bf 1b2c 853e 0b74 07be
00000250: 61ed 16bd a911 d33e f239 15bf 8ded f7be
00000260: c197 dabe 4047 4c3e 7320 f73e 84f8 993d
00000270: 34c3 b33d ce1b 9cbe 914a 463c 2c16 ecbd
00000280: 3e3b 843e 9c9d dabe 42bc 95be 5809 983e
00000290: bc02 97be bf2d c9be 4eec 0f3d 4923 e4bc
000002a0: eb70 00bf e579 a9bf 5194 4dbf 65bd 9dbe
000002b0: e53a d13d 1981 ed3e a083 b5be 3bd8 f0be
000002c0: e94e ca3e f27e 2fbf 4d0a 223e b3a3 22be
000002d0: 0509 933e 6f3d fbbc 57ba ad3d edf7 c1bd
000002e0: 9f4c 24bf 839d a33e 7067 743e fe89 ecbc
000002f0: e510 b03e 35a4 2bbf 7594 87bd 1956 853f
00000300: adf7 b03e 3f35 2e3e a1fb ea3e 7618 9fbd
00000310: 4183 a4be 48c0 5b3e 726f 01bf d944 01bd
00000320: 21e2 fc3e 1e2a df3d 030e 183f 529f 66be
00000330: a33f 03bf accd c7be 8fbd edbe eeea aa3e
00000340: 72e3 a03e 06ef e0be de82 13be 54dd 1bbe
00000350: 974e 1bbe 7117 21bd 320f 893e 7d24 febe
00000360: 73e7 cfbe ce9d 94be 5a91 9d3e d16f c5be
00000370: 683d f6bd e105 5cbe 762e 923e 5065 bb3e
00000380: 3eae babe 95fe 143e fe5d 5d3d 65e1 fbbe
00000390: 0e8e 28bf dc38 1a3d 943f 39bf f54d 16be
000003a0: 5ebc 0d3f 2aa8 59bf fdff cc3e 58aa 42bd
000003b0: f314 773e 642d dbbe 772e a4be 69f6 30bf
000003c0: 089a ddbe 30bd bf3d cafc b83e 275c ddbe
000003d0: bf8a 633c 59b0 ca38 f3a2 d73e 6955 56bf
000003e0: ad5a 693c 9fef 983e 5e6a 133f 3c49 40bf
000003f0: 6450 2bbf 511c 213f dabf 24be a040 88be
-0.036774453 0.14124331 -0.39604175 -0.4418921 -0.15892018 0.12407965 -0.19770288 0.19852154
-0.3805857 -0.3811513 -0.60963774 -0.11275355 0.14066331 0.08988518 -0.38266736 0.36449552
-0.020857135 -0.27906224 -0.044483107 -0.013270573 0.00071371393 -1.081117 -0.19309299 -0.17515956
0.104579054 -0.109036386 -0.4417182 -0.8010999 -0.3026416 -0.2932908 -0.2842747 0.33226347
-0.37533575 -0.35568008 -0.31318712 0.2415934 -0.31590012 -1.2459403 -0.046844076 0.21528399
-0.21594597 -0.24960639 -0.49098924 0.5001471 -0.4714336 -0.24256861 0.018482203 0.18364026
0.20260982 -0.045889623 -0.39208695 0.6706831 -0.18201132 -0.6117216 -0.60658216 0.38918313
0.19315135 0.4784984 0.5278082 0.30049148 0.21549472 -0.60045946 0.012627764 -0.84387684
0.18491857 0.24699624 0.59496754 0.63085675 -0.35986358 -0.011122852 0.6776464 -0.1690025
0.61397165 -0.72653913 0.20899333 -0.10711542 0.027836978 0.17341936 0.42072788 0.33795586
0.105111465 0.33643776 -0.25677267 -0.23144813 0.07096 -0.14986958 0.06024545 0.02136617
0.16907117 -0.7385736 0.035586316 0.11766405 -0.7393807 0.24501717 0.047099642 0.1962114
-0.25138134 -0.29558793 0.18652742 -0.41710427 -0.34691212 0.59068525 -0.019018058 0.12233393
0.4120819 0.29941347 -0.62518454 0.37070757 0.037604 -0.90151346 -0.09224617 -1.1579518
0.37497818 0.5242913 0.25793725 -0.8654004 0.96329445 0.3553367 -0.55563956 0.44781986
0.012599057 0.13164704 -0.23503198 0.20110574 -0.11690546 -0.44669405 -0.4461946 0.3117777
0.38396496 -0.21863121 0.58366793 0.34516153 -0.2188907 0.026384152 0.10587623 -0.08091344
-0.66134816 0.60894895 0.55545515 -1.2223518 0.12538314 -0.46434096 0.3887547 -0.57948047
0.19293529 -0.716013 0.26010212 -0.1322786 -0.036847476 0.4122441 -0.5829154 -0.48423424
-0.42693904 0.19949055 0.48266944 0.07518104 0.087774664 -0.30489963 0.012102739 -0.115276664
0.25826448 -0.4269837 -0.29245192 0.2969463 -0.29494274 -0.39292714 0.035137467 -0.027848857
-0.501723 -1.3240324 -0.8030444 -0.3080856 0.10216311 0.46387556 -0.35451984 -0.4703997
0.3951333 -0.6855308 0.15824242 -0.15882759 0.2871782 -0.030668942 0.08482807 -0.09471116
-0.64179415 0.3195611 0.23867583 -0.028874394 0.3438789 -0.67047435 -0.06620113 1.04169
0.34563962 0.170125 0.45895103 -0.077683374 -0.3213139 0.21460068 -0.5056068 -0.0315598
0.49391273 0.10896705 0.5939638 -0.22521713 -0.51268977 -0.39024103 -0.46433684 0.33382362
0.31423527 -0.4393236 -0.1440539 -0.15221149 -0.15166698 -0.039328996 0.26769406 -0.49637213
-0.4060627 -0.29026645 0.30774957 -0.38561872 -0.12023431 -0.21486618 0.28551072 0.36600733
-0.3646106 0.1455024 0.054044716 -0.491954 -0.6584176 0.03765188 -0.7236264 -0.14678176
0.5536555 -0.85022223 0.40039054 -0.047525734 0.24129085 -0.42808068 -0.320667 -0.6912599
-0.4328158 0.093622565 0.36130363 -0.4323437 0.01388806 9.664958e-05 0.42116508 -0.83724076
0.01424281 0.29870316 0.5758418 -0.75111747 -0.6691954 0.6293383 -0.1608881 -0.26611805

fc2.bias f4 [128]
00000000: 5063 8ebe 1a89 34bd 6bdf 4d3d d2c7 f3be
00000010: 3609 eebd f241 b4be 4b46 87bd cd33 773d
00000020: 6537 2fbe e61b d8bd edc9 51bf e6eb 0fbf
00000030: d6b8 3ebe a966 cfbe a63a b6bd 767c 59be
00000040: 9fb7 f4be f622 1bbf 6ae5 4dbf 7379 4d3e
00000050: b5cb 0dbf c07a 31bf 93aa cebe 0f43 2abe
00000060: 73ed a7be 968f d1bd 8ceb a53e 6a45 0d3f
00000070: a4d0 033e 3646 94bf 5723 7ebe 7714 62be
00000080: d6ed 48bf 291f a4be 35ff 62bf 57f9 48bf
00000090: 640f 94be 8f80 d53b 5f1e 41bf 805f d0be
000000a0: 2d89 a4be 0fb4 173c edec 803d 7f61 7fbf
000000b0: 97ae 1bbe 3513 dabe ae4d 523e 72b1 c13c
000000c0: 0547 99be 26ed 84bd 35d9 e2be aa77 ecbe
000000d0: 0692 9dbe 876a 97be 8ab3 04bf 5b47 63bd
000000e0: 1f1b 913e 61b0 25bf edfa 9abe c9fd d03e
000000f0: dfd8 86bb 6446 d6be 55c2 26be d642 9ebe
00000100: c8f3 11bd ddf9 c23b 5962 86bf c2e1 54be
00000110: f071 863c 0271 0abf 8a78 29bd 1e3c c53e
00000120: ff45 fabb 4234 503e 5d51 e93d df05 2b3b
00000130: ac6d bcbe 5d30 43bf 5efd 91be 377e 2f3e
00000140: 1a01 5bbb 4682 d5bd dd37 eebe 6044 76bf
00000150: cfa1 833e c58c 9fbe 512b 77be 87d0 babe
00000160: 903a e5bc 97a0 00be d6e1 b5be 1e57 aebe
00000170: 7a75 e9be 1412 033e af00 d3be f9d9 04bd
00000180: 79da 9f3e 6479 bcbe 26e6 d7be ba6a f8be
00000190: 81d3 2abf f725 41be a12e 36bb 6f5d d6be
000001a0: 9632 1fbe 07a0 d1be 4a06 6dbd 109a 5fbe
000001b0: 78d7 f4bd f0c7 103d b1eb 51be 9d00 a6be
000001c0: fd39 70bf 834a a7be 906d a2bf 16ac e13e
000001d0: 4056 17be 911b bcbc 7c2a 4d3c 6137 a4be
000001e0: 80eb c03d d6b1 0ebf 1168 c9bd f06b b1be
000001f0: 990c 11be 23ca 3fbe f380 a6be 438a 21bf
-0.27810144 -0.044076063 0.050261896 -0.47613388 -0.116228506 -0.35206562 -0.06605204 0.060352135
-0.17110975 -0.10552196 -0.8194874 -0.5621933 -0.18625197 -0.4050801 -0.08897905 -0.21238884
-0.47796342 -0.6060022 -0.80428183 0.2006586 -0.5538896 -0.69327927 -0.40364513 -0.16627143
-0.32798347 -0.10232465 0.3240627 0.5518404 0.12872559 -1.1583927 -0.24818169 -0.22078119
-0.7848791 -0.32055023 -0.88670665 -0.7850546 -0.28917992 0.0065155695 -0.7543697 -0.4069786
-0.32135907 0.009259238 0.0629519 -0.9975814 -0.1520332 -0.4259278 0.20537445 0.023644183
-0.29936996 -0.06490545 -0.4430634 -0.46185046 -0.3077547 -0.2957346 -0.51836455 -0.05548797
0.28341004 -0.6472226 -0.30269566 0.40818623 -0.0041152085 -0.4185058 -0.1628507 -0.30910367
-0.03563288 0.005950196 -1.0498763 -0.20789245 0.016411752 -0.54078686 -0.04137472 0.38522428
-0.0076377387 0.20332435 0.11392472 0.0026096029 -0.36802423 -0.7624567 -0.28513616 0.17137991
-0.0033417405 -0.10425238 -0.46526995 -0.9619808 0.25709388 -0.31162086 -0.24137618 -0.3648722
-0.027982026 -0.1256126 -0.35523862 -0.3405084 -0.4559744 0.12799865 -0.4121146 -0.032434437
0.3122137 -0.36811364 -0.42167777 -0.48518926 -0.6672898 -0.18862139 -0.002779879 -0.4186816
-0.15546641 -0.40942404 -0.057867326 -0.21836114 -0.1195516 0.035346925 -0.20500065 -0.32422343
-0.93838483 -0.32674035 -1.2689686 0.44076604 -0.14778996 -0.022962363 0.012522336 -0.320735
0.09419918 -0.55740106 -0.09834302 -0.34652662 -0.14164962 -0.18729453 -0.32520255 -0.63101596

fc3.weight f4 [4, 128]
00000000: b21a ad3e d737 22be ea2e 783e 2562 ff3e
00000010: bfef 2e3f 8103 b23d e0d8 c3bd 6959 3f3e
00000020: bbc8 9b3e 13a0 86be f63f 543e d767 ec3e
00000030: 99ab f33e 6352 d6bd 442c 833e f3b3 c53f
00000040: 2d0f 1abf fcfe 7fbb cf53 143d b580 7d3e
00000050: 2439 523f b598 7f3f ba98 893e e7b6 5bbe
00000060: 561e f6be d461 113f 0c0d 8a3c 5dab dabe
00000070: aa8d 00be b6e9 2cbe 91cc 51bf 8609 16be
00000080: 4fd4 d93e d44e b2bd e93a 123e 9a50 a03e
00000090: 2794 31bf b6ed 6dbd 1ae6 043f 18ab 973e
000000a0: d87e 693e 8db7 8b3c 529b 45bf befd 48bc
000000b0: b371 9dbf 39ce bc3e 2274 1cbf bc0f 563f
000000c0: 7fc2 bdbe 0b6b 963f 90b0 343f d1f2 58be
000000d0: cfd9 f4be 769e 4e3d b969 ddbc cd92 ddbd
000000e0: 2b99 d9bc 3f3f 013e 8694 1f3e 715b 6ebe
000000f0: 584c 6ebf 3e6c 243f 57fc 82bd 33c5 9dbd
00000100: cd97 4d3e bfaf 773f ce20 0ebf efeb 5dbe
00000110: d789 3f3e bd5f 153f a679 1ebf 1db0 4cbd
00000120: bc52 45be c34b cf3c 9933 7abe f6a4 063e
00000130: b7ac 5dbe 81fe 68be 4081 5b3f f76e 91be
00000140: 69e7 bcbd d617 503e 19b8 a6bd fcf7 353f
00000150: 6559 8cbd 14a4 edbd 8357 b93d 74a3 aabf
00000160: 0602 253d 9278 6dbe b9b0 c9be 4729 423e
00000170: 023c a7be ee15 853e c57e ee3d 6ab4 2bbf
00000180: e958 a0be e215 24be 79ed d93e 1bfa d3be
00000190: 299f 5d3e 16c3 fabe ec09 6b3f a93c 25bf
000001a0: 97ea 913d 70df 29be 64e0 78bf a7c3 323f
000001b0: e0e5 cb3f 2f75 4bbe f36d 033f 9cbf 90be
000001c0: 47cb 8ebe 4946 7fbe 99ac dfbe 2e93 afbe
000001d0: ed61 e83d fec4 a6be 2d09 72bf c272 0fbf
000001e0: 7bad 0abf 0efb ca3d 8f13 793d a491 6bbf
000001f0: 8b20 6f3e 8166 55be 60db 893e 3bdc 713f
00000200: c7e8 b4be 6906 6c3e ae66 d2be 8a22 8ebe
00000210: 6492 cfbe 1690 01be 830d 223e 2899 8cbe
00000220: 99cd 29bf df44 debd 73eb 8c3e 26a2 6dbe
00000230: f0fd d53e 5aed fcbd 5031 923e 6634 9fbe
00000240: 6b0a 463e b2ff 943e a2d6 7f3e 26fa 8abe
00000250: d695 b33e 3985 5ebe 8a9b 80be 5899 1f3e
00000260: 3ffc 573e a2a4 c1bd af9d 23be c5a1 153e
00000270: dd89 253f dd23 e43d c3a1 14bf 72dd 843d
00000280: ea71 193f f019 05be 544e a0bf 1203 d23d
00000290: 0fef 783f b7b6 b73e 5d26 01bf 0bc6 b03e
000002a0: 4fc2 f33e 81e9 e63e cf6e f2bd 2e46 303d
000002b0: 0344 133f 4ab7 083e 6c7d 6d3e 0dd3 aa3e
000002c0: d263 c53e 12c3 adbe 0f18 d4be efaa 583e
000002d0: bc91 b9bf 03d2 d3be 940e 00bf 4e00 a63d
000002e0: 759d e43d cae9 4a3e 0c29 9d3d 8038 f13c
000002f0: 700d eabe 80ea b13b 5ccf 1fbf 7d09 10bf
00000300: 8020 ec3e bf16 483c 985d 673e 1ed3 44bf
00000310: 37ea e33e 106f 573e fb3b e93d ebcc 9f3e
00000320: 1f78 e33e 65aa 0ebf aaec a0be 13a1 6dbd
00000330: d52a 23bf 2020 6abe 0f72 06bf c395 973d
00000340: 68b1 0dbe ca24 cbbe 9904 bcbe 3abb 68be
00000350: 0531 b8be e13b a1be 94af 19be 5215 e03d
00000360: f6eb 72be 4ed3 153d 7188 34bf b55a 9ebe
00000370: 4936 13bd 503c d1be abd2 113f c3b8 05bf
00000380: 1805 cdbe f08b 8bbf 173a 843e 7492 4f3e
00000390: 9933 14bf a81c 7dbf 79f3 27be ac5a f3bd
000003a0: af3e eb3e 0f6b abbe 6395 a73d 8809 b0be
000003b0: 1e9d 293c de9d af3d 37e0 573d 32ab 2b3e
000003c0: 32f8 fcbd 1770 943e a092 ac3e 3293 c9be
000003d0: d814 2a3e b1e5 703d 858c 77bd f3d0 513f
000003e0: 796b adbe c543 323f 40e1 1b3d 9d11 d2bd
000003f0: 3af9 b1be cdfb d8bd a9f7 d3bd 8d81 4abe
0.3380943 -0.15841614 0.24236646 0.49879566 0.68334574 0.086920746 -0.0956285 0.18686451
0.30426583 -0.26294002 0.20727524 0.46172974 0.47591856 -0.10464933 0.2561971 1.5445541
-0.60179406 -0.0039061895 0.03621274 0.24756129 0.8211844 0.9984239 0.26874334 -0.2145649
-0.4807002 0.567899 0.016851924 -0.42708865 -0.1255404 -0.16886029 -0.8195277 -0.1465207
0.4254479 -0.087064415 0.14280285 0.31311494 -0.6936669 -0.058088027 0.5191361 0.29622722
0.22802293 0.017055297 -0.77190125 -0.012267528 -1.2300323 0.36876085 -0.61114705 0.8361776
-0.3706245 1.1751417 0.70581913 -0.21186377 -0.47822425 0.05044409 -0.027027952 -0.10819016
-0.026562294 0.12621783 0.15584001 -0.2327707 -0.9308524 0.64227664 -0.06395786 -0.077036284
0.20077439 0.9675254 -0.55518806 -0.21672033 0.18704925 0.5834921 -0.6190437 -0.049972642
-0.19269842 0.02530468 -0.24433745 0.13148865 -0.21647917 -0.22753336 0.85744095 -0.28404972
-0.092238255 0.20321593 -0.081405826 0.7108152 -0.06852988 -0.11603561 0.09049895 -1.3331132
0.040285133 -0.23190525 -0.3939264 0.18961059 -0.3266297 0.25993294 0.11645273 -0.67072165
-0.31317833 -0.16023973 0.4256399 -0.41401753 0.21642746 -0.48976964 0.91812015 -0.64545685
0.071248226 -0.16589141 -0.9721739 0.6982979 1.5929527 -0.1986892 0.51339644 -0.28271186
-0.27889463 -0.24929155 -0.4368637 -0.34291977 0.11346803 -0.32572168 -0.9454525 -0.5603448
-0.5417096 0.09911166 0.06080967 -0.92019105 0.23352258 -0.20839883 0.26925182 0.9447667
-0.35333845 0.2304932 -0.41093963 -0.27760726 -0.40541375 -0.1265262 0.15825467 -0.274606
-0.6632934 -0.1085298 0.27523383 -0.23206386 0.417953 -0.12349959 0.28553247 -0.31094664
0.19339912 0.2910133 0.2498422 -0.27143973 0.35075253 -0.21730508 -0.25118667 0.1558584
0.21092318 -0.09455229 -0.1597812 0.14612491 0.6466349 0.11139653 -0.5805933 0.0648755
0.59939444 -0.12998176 -1.2523904 0.10254492 0.97239774 0.35881588 -0.5044916 0.34526095
0.47609183 0.45100024 -0.11837541 0.04303568 0.5752565 0.13351169 0.23192376 0.33364144
0.3855272 -0.3393789 -0.41424605 0.21158956 -1.44976 -0.41371164 -0.50022244 0.08105527
0.11162845 0.19815746 0.07673845 0.029445887 -0.45713377 0.005429566 -0.6242578 -0.5626448
0.46118546 0.012212454 0.22594297 -0.7688464 0.4451463 0.2103846 0.113883935 0.31211028
0.44427583 -0.5572875 -0.3143056 -0.05801494 -0.6373723 -0.22863817 -0.5251779 0.07401612
-0.13837206 -0.39676505 -0.36722258 -0.22727671 -0.359749 -0.31490996 -0.15008384 0.109415665
-0.23722824 0.03657847 -0.70520693 -0.3092858 -0.035940442 -0.40866327 0.5696208 -0.5223505
-0.4004295 -1.090208 0.2582557 0.20270711 -0.5789123 -0.9887185 -0.16401471 -0.11882529
0.4594626 -0.33480117 0.0818279 -0.34382272 0.010352401 0.08575033 0.052704062 0.16764525
-0.12352027 0.28991768 0.33705616 -0.39370114 0.16609514 0.0588128 -0.060436744 0.81959456
-0.33871058 0.6963466 0.038056612 -0.10257266 -0.34760457 -0.10594902 -0.10349972 -0.19775982

fc3.bias f4 [4]
00000000: 29b4 9b3a 3bab 703e 019d 32bc b5e1 4c3e
0.0011879253 0.23502819 -0.01090169 0.20007975
