cache/checkpoint_0_critic.pth (torch, 172804 bytes, 9 tensors)

bn1.weight f4 [33]
00000000: fbea 8c3f 7afe 743f f7de 863f a2b4 2c3f
00000010: 00d5 2a3f 2772 103f 51c0 1c3f 6fab cf3e
00000020: cfd9 ef3e 1de1 023f c4f3 293f 8653 0d3f
00000030: 5bae 233f 0c49 af3f 67ec 883f 4e30 a83f
00000040: fbbe 2c3f 0ed9 1e3f e3ec 0f3f 14ab 4a3f
00000050: 9cac 003f e9a8 da3e 1c0a e63e 8bdb 803f
00000060: 2f92 483f 5790 763f 9c0f b13f 0000 803f
00000070: a906 af3f 0000 803f 0000 803f 0000 803f
00000080: 048e bb3f
1.100921 0.957008 1.0536793 0.67463124 0.6673126 0.5642418 0.6123095 0.4056048
0.46845862 0.51124746 0.6638758 0.5520557 0.6393792 1.3694167 1.0697144 1.3139741
0.67478913 0.6204995 0.56220835 0.79167295 0.5026338 0.42706993 0.44929588 1.0066999
0.7834806 0.96313995 1.3832889 1.0 1.3673908 1.0 1.0 1.0
1.4652715

bn1.bias f4 [33]
00000000: 3da5 923c 830c 22be cee8 c8ba 8b39 253e
00000010: b417 bb3d 367f afbb 1bc0 57bd 3f5b ebbd
00000020: 120d 9a3b b2fb a3bd aeed bbbd a119 43be
00000030: 13cb 8bbd bc09 e6bc 994d 933d ce93 6fbb
00000040: f5f4 3cbb 0adb ed3d 65fc 553d f40b 003d
00000050: d158 66bd 278e 753d 0308 7bbd 61d6 02bd
00000060: b921 643d bc78 9bbc f111 c83c e7fe 1c3e
00000070: e2fe b3bc b580 f13d 2729 08be 69b0 193e
00000080: d5ec 82bc
0.017901057 -0.15825085 -0.001532817 0.16135232 0.091353804 -0.005355741 -0.05267344 -0.11492013
0.004701265 -0.080069914 -0.09176193 -0.19052745 -0.06825843 -0.028080814 0.07192535 -0.0036556604
-0.002883253 0.11614044 0.052242655 0.0312614 -0.056237046 0.05995002 -0.061286937 -0.03194273
0.055696223 -0.01897847 0.024422618 0.15331613 -0.021972124 0.11792127 -0.13296948 0.15008701
-0.015982071

bn1.running_mean f4 [33]
00000000: 8def d33e 84b8 33c0 e709 29bf 1249 5c3f
00000010: 522f 383d 0185 9c3b 1be3 b4bd 1e85 7b39
00000020: 820a 4fbc 0d6f 4f3c 1e31 513d d3ef 1e3d
00000030: 36fb e1bb 0c28 043e 7d39 41c0 27d4 e2be
00000040: c999 463d 751d f23b 8bff 4a3d fabb 8f3e
00000050: 4fe3 b23c 14e6 e83c 37be 823d fd05 833c
00000060: 23c5 e73d f999 64bc 8467 57bd fcff 7fbf
00000070: 5d09 ba3d 0000 0000 fcff 7f3f 0000 0000
00000080: 7a1a ccbc
0.413937 -2.808137 -0.66030735 0.86048996 0.044967003 0.0047765975 -0.088323794 0.00023986815
-0.012636783 0.012660754 0.051072232 0.038802933 -0.0068964018 0.12905902 -3.0191338 -0.44302484
0.048486505 0.0073887655 0.04956011 0.28073102 0.021836905 0.028430022 0.06383937 0.015994066
0.11316898 -0.013952726 -0.052588955 -0.99999976 0.09083817 0.0 0.99999976 0.0
-0.024914969

bn1.running_var f4 [33]
00000000: df01 5c40 8985 143f 0d43 6240 5245 a83d
00000010: 0317 773d 555a ee3c 45f7 9f3d e62a 723e
00000020: 8d92 243d 8d7b cb3d aa81 dc3f ddc6 5f3f
00000030: 5e06 e93f b037 8b41 a788 ff3f 6a60 9741
00000040: 7fdb d13d b514 353e 0473 9c3d b2d9 0f3f
00000050: 113c bd3f d165 073f 85fb 103f fdd8 c740
00000060: 6f01 4e40 5554 0141 6cb9 0242 0400 0000
00000070: 1cf6 fa41 0400 0000 0400 0000 0400 0000
00000080: f02c a43e
3.4376142 0.5801626 3.5353425 0.08216347 0.06032468 0.029095808 0.07810835 0.23649177
0.040178824 0.09935675 1.722707 0.87412816 1.8205068 17.402191 1.9963578 18.922077
0.10246944 0.1768368 0.07639125 0.5619155 1.4783956 0.52889735 0.5663379 6.245238
3.2188375 8.083089 32.681076 6e-45 31.37017 6e-45 6e-45 6e-45
0.32065535

fcs1.weight f4 [256, 33]
00000000: b3a8 0bbd 0f87 843a edc4 fdbc 63c7 9c3c
00000010: e636 773b b4ec 8e3d 3f1d ccbb c254 babc
00000020: d5ce 50bd 217a 943c 1373 66bd 7458 67bc
00000030: e135 67bd 12dc 3cbd c8c5 a63b 398e 93bd
00000040: a763 733c 8bc7 2dba 24cf f83c 31c4 febc
00000050: e059 323c 73c2 983c cb30 65ba 6b79 45bc
00000060: 18fa 503c 4835 8dbd 6e37 20be 7945 07be
00000070: 2855 eebc 4000 adbd 9234 d53c 05dc 4bbd
00000080: faa5 6d3e faa9 4e3d 3d92 1bbd dc92 143d
00000090: f198 c7bc 9c3f bcbd afae b13b 873d 9e3d
000000a0: 75e3 113d 8def 04bd 4836 973b 93c1 3aba
000000b0: 3a25 91bc d161 253d 0be3 4ebd 2c98 71bc
000000c0: 8945 003c 25fa 33bd 6095 6bbd bf37 06bd
000000d0: 5c78 be3d a043 d03a 45b4 39bb 9600 893b
000000e0: 4844 3fbd ffac 0f3d 7eaf 20ba 305b 0fbe
000000f0: 8d48 87bc a6d1 803d dae1 a93c 9e20 293d
00000100: 280b 623d 6a7d 1f3e f4af 903d 16e8 d5bd
00000110: c789 efbb 0c3a a7bb b651 d43c 4a7a aabc
00000120: ddaf e2bc f4f5 063c 6c75 14bd fea1 043d
00000130: 4470 3abb ca80 90b8 43e2 283d 234c 53bd
00000140: d836 023e f235 c13d b6a4 cbbc 21a3 a6bb
00000150: dea7 8fbc 90f0 a3bd 1f4c 013d 0144 d4bc
00000160: 258e 89bc ceca ccbc 9bef 063d 98a0 acbd
00000170: 9a22 ea3d 7ce2 583d d63b 0bbd 43e4 933c
00000180: b806 26bd e8aa 6d3d e5c3 8bbd 1175 9fbd
00000190: cbd4 9e3d 038d 8e3c e5d8 0dbc 092a d0bc
000001a0: 7ee6 843c 32ba b5bb e2da b83c be4c 3f37
000001b0: 0223 eeba 61f3 0e3c 4caa 103d 674c 2c3c
000001c0: b370 333e 8dc0 ccbd 5b44 4abc 15be 2e3d
000001d0: 5a0f 18bc c28c 223b 9a12 1b3d 9324 443c
000001e0: 0ddf ca3c c574 0b3c 97b4 073d fcf3 79bd
000001f0: 6475 94bb fd20 35be fd88 6dbd cb52 023d
00000200: c4bf b3bd 469a 073d 8b9e 96bd 215f 8cbd
00000210: 86d5 203d ec3a c53d 6800 503d 36f3 8a3d
00000220: 7c0f 45bc 8652 8c3c 8ef3 803b 7ffa ac3b
00000230: 08fc dd3c 19d1 e4ba 980a 0b3d d224 6e3c
00000240: 3529 063d ff95 0abe 0565 07be 6bdd 98bd
00000250: 6cad 28bb 7479 273b 09b5 233c 8132 34bd
00000260: 3695 c9bb 0164 f3bc 94a8 73bc 282e 6cbd
00000270: 7125 4dbd e312 23bd 065c 9e3d 1cbd 493c
00000280: f709 78bc f2de b7bd d5eb adbb 52bb 4e3c
00000290: 9273 d03c 85d0 d13c 3744 ebbc 1521 10bd
000002a0: 08f9 29bc 5012 74bc 1cb7 a83a be0d 8abc
000002b0: 4c0a 893c 8626 303d b98c 303d 78cd 033d
000002c0: 297a 2bbc 8fea 983b 81aa f6bd 3ee1 263d
000002d0: 4414 12bc e49e 54b9 dedb 4d3c 5e7d c7bc
000002e0: bc8b 823c 6f63 d8bc 3769 5e3c f592 a8bc
000002f0: 4d66 dc3b 74a6 393c d30b 99bd a5f9 133e
00000300: 2cef 1ebd 784a 9c3d ce8e 36bd 1709 433d
00000310: 6ae4 cc3b 4535 e3bd 8f81 653c 89f2 1f3d
00000320: f4fb 363d d40c 993d 29d6 fa3c a123 183d
00000330: b8ec 093d e255 2d3d ed04 abbb 87a0 c03c
00000340: eae1 1a3c 9189 e8bc ff59 083b d5ea edbc
00000350: be21 1c3b 1465 25bd 6f2f 9cbc 4f65 29bb
00000360: a293 0f3d 2705 613b 6c97 19bb 0947 673c
00000370: d530 ea3c 1d8a cfbc dd64 87bb 3c50 aebc
00000380: 8e34 bf3d 6ecd 403d 4855 f7bc 89a7 073d
00000390: 3e94 f4bd 7a93 c43d 587e e5bc eb8c e63c
000003a0: 8b3c f0ba 3988 7a3b 91d8 20bc b06b 023d
000003b0: 6cc0 ab3c f0ff 14bc 4e00 0abd 1a43 403c
000003c0: 4578 fd3a fb3b a13c 3661 9cbb fbe3 0c3d
000003d0: bc9c 7d3d ba79 893d e553 cc3c 9b0e 473d
000003e0: b0fa 263d 5442 6ebc 9e8b 10bd 85e6 3b3d
000003f0: 46c9 05bd 51f0 71bc 4e91 23bd 6bb4 5a3d
-0.03409643 0.0010111051 -0.03097769 0.019138044 0.003772193 0.06978741 -0.0062290723 -0.022745494
-0.0509785 0.018124642 -0.056262087 -0.01412021 -0.056447867 -0.046108313 0.0050894953 -0.07204861
0.014855302 -0.00066291605 0.03037221 -0.03109941 0.010885686 0.018647408 -0.00087429275 -0.012052874
0.0127549395 -0.06894928 -0.15646145 -0.13210095 -0.02909334 -0.08447313 0.026026044 -0.049770374
0.23207846 0.05045507 -0.03798126 0.03627287 -0.02436492 -0.0919182 0.0054224352 0.07726579
0.03561731 -0.032455016 0.004614625 -0.0007124182 -0.017717946 0.040376488 -0.050509494 -0.014745753
0.0078290785 -0.04393973 -0.057515502 -0.032768007 0.093003005 0.0015889294 -0.0028336209 0.004180978
-0.046695977 0.03507709 -0.0006129666 -0.13999629 -0.016514087 0.06289987 0.020737577 0.04129087
0.05518642 0.15575185 0.070648104 -0.104446575 -0.0073101255 -0.0051033553 0.025917869 -0.020810265
-0.027671749 0.008237351 -0.036244795 0.03238105 -0.0028448263 -6.890444e-05 0.041231405 -0.05158628
0.12716234 0.094341174 -0.024858814 -0.0050853644 -0.0175361 -0.08004868 0.031566735 -0.025911333
-0.016791413 -0.024999049 0.03294335 -0.08429068 0.11432381 0.052950367 -0.03399261 0.01805318
-0.04053375 0.058024317 -0.06824473 -0.077860005 0.07755431 0.017401224 -0.008657669 -0.025410669
0.016223188 -0.005545878 0.022565309 1.1402355e-05 -0.0018168392 0.008725018 0.035318658 0.010516263
0.1752346 -0.09997664 -0.012345399 0.042661745 -0.009281004 0.0024803136 0.037859537 0.011971611
0.024764562 0.008511727 0.03313121 -0.061023697 -0.0045305956 -0.17688365 -0.05799197 0.03181724
-0.08776811 0.03310611 -0.073544584 -0.06854082 0.03926613 0.09630379 0.050781637 0.0678467
-0.012027618 0.017129194 0.003935284 0.005278885 0.027097717 -0.0017457335 0.03394565 0.014535146
0.03275414 -0.13533781 -0.1322213 -0.07464107 -0.0025738133 0.002555457 0.009991893 -0.043993477
-0.0061518205 -0.029710772 -0.014871735 -0.057661206 -0.050084535 -0.039812934 0.07732396 0.012313154
-0.015139095 -0.0897807 -0.0053076544 0.012617903 0.025445733 0.025612125 -0.02871905 -0.0351878
-0.010374315 -0.014896944 0.0012871954 -0.016852256 0.016728543 0.04300549 0.043102954 0.032178372
-0.010466137 0.0046666334 -0.1204424 0.04074215 -0.0089159645 -0.00020277087 0.012564627 -0.024351772
0.015935771 -0.026414601 0.01357489 -0.020577887 0.0067260624 0.011331189 -0.074729584 0.144507
-0.03880231 0.07631391 -0.044569783 0.04761609 0.006252815 -0.11094145 0.01400794 0.03904966
0.044673875 0.0747315 0.030619698 0.037143353 0.03367302 0.042318232 -0.005219093 0.023514045
0.009453276 -0.02838591 0.0020805595 -0.02904264 0.0023823823 -0.0403796 -0.019065587 -0.0025847738
0.035052903 0.0034335346 -0.0023436202 0.014116057 0.028587738 -0.025334412 -0.004131897 -0.021278493
0.09336196 0.047070913 -0.030192032 0.03311876 -0.119423375 0.095984414 -0.028014347 0.028143367
-0.001832859 0.0038228168 -0.009817258 0.03184098 0.020965777 -0.009094223 -0.033691697 0.011734748
0.0019338211 0.019681921 -0.0047723306 0.034397107 0.06191705 0.067126706 0.024942348 0.048597913
0.040766418 -0.014542181 -0.0352894 0.045874137 -0.032662652 -0.014766769 -0.039933495 0.053394716

fcs1.bias f4 [256]
00000000: 4933 2ebe 06b4 70bd 7983 a03c 7258 94bd
00000010: 2a1b f33d 2ee3 d93c 522f 353e e9fd 493e
00000020: f305 cfbd f9f3 083e aada 06be 8ac3 1e3d
00000030: abf2 01bd 622a cdbd ea69 583d 6379 903c
00000040: f4a8 623e 6db4 1b3e 8763 a73d 43e4 0abe
00000050: a0a9 1fbb 971d fcbd 6961 913c f779 033e
00000060: ce35 0cbe 6b91 113e 813a 183d a81e 19be
00000070: 09cb df3d 9420 f63d 0f94 e9bd e6d0 f0bd
00000080: e9a1 263e 238a ddbc b6b5 f4bd 7477 69be
00000090: bc30 693d 9a69 03be cf4b bebc 34f0 023e
000000a0: c328 ddbd f266 ffbd d2aa e5bd 771f d53d
000000b0: 650c 083d bfa5 52bd 27b9 b4bb 96f1 983d
000000c0: a819 503e 3caf 1cbe 0c05 f2bd 1fe8 a9bd
000000d0: d528 72bd e3ef de3d c55b 95bd 0911 5e3e
000000e0: fec6 0fbe a021 b03b c3dc 1ebe 0ad9 943d
000000f0: 5c03 9bbc 59e6 40be dd36 19be a0de 2d3e
00000100: dd20 d8bd 2429 00be 0193 51be 3d89 5c3e
00000110: ec0f 1dbe a01c 4cbc 3e94 16bd 163e 42be
00000120: 5d21 2dbe 8fb2 90bd 28e2 66be 35dc 523d
00000130: 2148 333d d90f 753d fca9 c9bd d6f6 a8bd
00000140: 6709 16bd 3d57 d6bd c285 3dbe d32c 733e
00000150: c756 5dbb b68c a1bd 8273 5e3d 8015 f2bd
00000160: 847a a2bd 6731 b03d 4010 ca3d 4e77 a8bd
00000170: 2356 ae3d d343 173e d20c a53d 86f2 c7bc
00000180: b459 3fbd 327f 373d 06f3 9ebd 005a 2fbd
00000190: f4e6 e3bd 0d09 02bd 5a13 f73c 9e9a 95bd
000001a0: 2d81 bebd 91a6 f53d 93f6 98bd 48db 5e3e
000001b0: e80b ec3d 82d0 5e3d 562e 783d 7592 ea3d
000001c0: e015 5bbd d369 aebd 9e8d 33be 41a9 0bbe
000001d0: 3df9 4c3e 2354 773d 9323 b3bd cdb8 0abd
000001e0: 8c63 88bd 43b5 573e 0cd5 c4bc 7b5f 553d
000001f0: 90ed 863d c5ff 443e 8fb0 d1bd 2739 7b3d
00000200: df44 af3d 271b 44be 2a42 603d b093 993c
00000210: 6754 c23d 88d5 89bd c9cb efbd 5330 72be
00000220: db9a 473e f54b 6d3e 3bb4 13bd 087c 60ba
00000230: dbdd 47be 1571 d4bd 7a87 3d3e afc2 f8bd
00000240: b56c f53d 5a18 b8bd 9dc9 97bd e828 febb
00000250: b037 45bb e51f c13d 1649 f4bd 06ca a7bc
00000260: 79df 0dbd 2162 a1bd 95c5 c13d acee 55bd
00000270: 0188 cf3c b0b9 96bd a6b6 fc3d cad4 e7bd
00000280: 4919 0cbe 130a 853d b6eb 56bd 2a26 0cbe
00000290: d282 333e 346b 753e a9db 703e af23 1d3e
000002a0: 952b 503e 6f44 bfbd 7d1d acbd a8bd 0dbe
000002b0: 52f5 d5ba 59a7 183e bc8a 18be c1d1 dd3c
000002c0: 1477 bebd 9977 5f3e 6927 f3bc 5e23 463e
000002d0: b48f 083d d476 0b3d 2fa8 613d f76a 19be
000002e0: fe02 05be 9c4d fe3b b1d4 283e 9962 54bd
000002f0: 9dba 003e bc96 bd3d d208 6ebd f2e5 0e3e
00000300: b8ab b43d 755e 12bd 0b2f 09be a823 963d
00000310: 2af8 263e f457 003e b740 fabd 3b96 acbb
00000320: 1993 613d 3783 35be b1f9 8c3e 773e 85bd
00000330: dc5c d7bd 10f9 aa3d 3135 293d 8d49 033e
00000340: b274 ffbd c166 5b3d 32f0 d4bd 9f8d 183d
00000350: 9968 31be 54df d1bd d581 0a3d 21ea 33bd
00000360: e05e 2f3e 0350 61bd f41b 9bbd ff1e 713d
00000370: e164 783d 0446 983d 0cb9 1dbe 3580 3a3e
00000380: 8e2c a03b eeae c3bd a8b4 093c 9a05 37be
00000390: 7acf 673d 44e7 49be 95d2 413c 951a 3b3c
000003a0: beb5 b3bc 3666 80bd a4e8 c23d 9ef7 e1bd
000003b0: 5d5d 2c3e 518f 223c 3848 01be 9525 2fbe
000003c0: 561b 4dbe c1a2 5d3e 272a b03c 8203 95bd
000003d0: e5e5 55be f422 55be 70c1 983d de2b 033e
000003e0: ab10 26be 038c 8b3d fae0 b23d c4a9 043b
000003f0: 1b2c 6dbd 2510 a33d cd1c cc3d e1e9 66bd
-0.17011751 -0.058765434 0.019593941 -0.07243432 0.118704155 0.026597586 0.17693833 0.19725765
-0.101085566 0.13374318 -0.13169351 0.0387607 -0.031725567 -0.100178495 0.052835383 0.017636007
0.22134763 0.15205546 0.0817328 -0.13563637 -0.002436258 -0.12310331 0.017746644 0.12839495
-0.136924 0.14215629 0.03716517 -0.149531 0.10927398 0.120179325 -0.11405193 -0.11758594
0.16272701 -0.027043408 -0.11948721 -0.22799474 0.056931242 -0.12833253 -0.023229508 0.12786943
-0.1079879 -0.12470807 -0.11214222 0.10406392 0.033214945 -0.0514276 -0.005515236 0.07467954
0.20322287 -0.15301222 -0.11817369 -0.08296227 -0.05912097 0.108855985 -0.07292894 0.21686186
-0.14040753 0.005375102 -0.15513901 0.072679594 -0.0189225 -0.1883787 -0.14962335 0.16979456
-0.10553143 -0.12515694 -0.20466234 0.21536727 -0.15338105 -0.012457997 -0.03676247 -0.18968996
-0.16907258 -0.07065307 -0.2254721 0.051479537 0.04376996 0.059829567 -0.09846875 -0.08250205
-0.03663006 -0.10465858 -0.18508056 0.23747568 -0.0033773647 -0.078881666 0.054309376 -0.11820507
-0.07933524 0.08603173 0.09866381 -0.082258806 0.08512523 0.14771967 0.08059086 -0.024407636
-0.046716407 0.044799037 -0.07761197 -0.04281044 -0.11128035 -0.031746913 0.030160595 -0.073048815
-0.09301982 0.11994661 -0.07468905 0.21763337 0.115257084 0.054398067 0.060591064 0.11453716
-0.05348766 -0.08516278 -0.17534491 -0.13638784 0.20016952 0.060382973 -0.087470196 -0.033867646
-0.06659612 0.2106524 -0.02402737 0.05209301 0.0658828 0.19238193 -0.10238754 0.0613338
0.08558058 -0.19150983 0.0547506 0.01874718 0.09488755 -0.06730181 -0.11708791 -0.23651247
0.19492666 0.23173507 -0.036060553 -0.0008563404 -0.19518225 -0.10373131 0.18508711 -0.12146508
0.11983625 -0.0898902 -0.074115016 -0.0077563412 -0.0030093007 0.094299115 -0.119280025 -0.020482074
-0.03463695 -0.07880045 0.09461514 -0.05222957 0.025333406 -0.07359636 0.12339525 -0.11319883
-0.1368152 0.06496062 -0.052470885 -0.13686433 0.17530373 0.23966676 0.23521294 0.15345643
0.20329125 -0.093392245 -0.08404062 -0.1384188 -0.0016323722 0.14907588 -0.14896673 0.027077558
-0.09300056 0.21822967 -0.029681878 0.19349429 0.03334017 0.03404887 0.055092033 -0.1498221
-0.12989423 0.0077607166 0.16487385 -0.051851843 0.12571187 0.09257266 -0.05811388 0.13954905
0.08821815 -0.035734612 -0.13396852 0.0733102 0.16305605 0.12533551 -0.122193746 -0.0052669323
0.055071924 -0.17725836 0.2753425 -0.06506055 -0.105157584 0.08348286 0.041310493 0.12821026
-0.1247343 0.05356479 -0.10397376 0.037244435 -0.17325057 -0.102476746 0.033815224 -0.043924455
0.17126036 -0.055007946 -0.07573691 0.05886745 0.06064308 0.074352294 -0.15402621 0.1821297
0.004888124 -0.095548496 0.008404888 -0.1787323 0.05659435 -0.19717127 0.011829992 0.011419912
-0.021937247 -0.06269495 0.09517029 -0.11033557 0.1683249 0.009921865 -0.12625206 -0.1710418
-0.20029959 0.21644117 0.021504475 -0.0727606 -0.20888479 -0.20814115 0.0745877 0.12809703
-0.16217296 0.068138145 0.08734317 0.002024279 -0.05790339 0.07962064 0.09966431 -0.056375388

fc2.weight f4 [128, 260]
00000000: 53d3 acba e4d5 16bd ab19 3c3d f19c c7bc
00000010: 19cd f6bd bdcf c13c 0d54 07bd 2133 c73d
00000020: b6ab d7bd b960 983c 0df0 c63a 3724 aa3d
00000030: fbf9 e83b 9c52 b73c 7135 613d 5e0f 86bd
00000040: bcc7 4e3d 5ba1 5cbc 583b c23d 3885 833c
00000050: 0e86 6abd d173 f53c 9013 73bc 3458 2cbd
00000060: 5314 23be ff25 e73c bb9b 2d3c dc8d 4e3c
00000070: ad31 5ebd e5c4 9cbc 4ec9 85bd 7f9b 68bd
00000080: fd60 8a3d dbb2 8ebc 7b33 3abd c95c 133d
00000090: 62c4 bebb 40ad febc e332 f6ba ec9f 60bc
000000a0: e9b5 49bd 3569 663d 7e33 9fbd d5d7 663c
000000b0: 3311 08bd f93a 143d c2c7 eebd 6500 afbc
000000c0: f20f b33d 6dbf c0bc be20 8fbd 905f 49bd
000000d0: f065 b13c 0b66 203d 145f 083e e84f c23d
000000e0: a588 c3bd 7581 84bd 6243 7bbd e529 f33d
000000f0: e8ba b93d 779b 773d 1d98 82ba 9ddb dbbc
00000100: 69d5 92bd 48e2 d9bc 2110 f93c 6d91 78bd
00000110: 9a12 9abb 7235 a43d aee1 0dbd e42c 7cbd
00000120: 2016 edbd e24c edbc f1de 4abc 941b 75bd
00000130: a978 afbd fe52 223d fcee 2abd bcdc fcbd
00000140: b907 c6bc c570 14bd b03e fa3c cb27 963d
00000150: 93bb 993a da77 5ebc 08fb 09bd 92a0 663d
00000160: 6df2 1b3d 5a1d c3bc b26a ff3c 1c79 34be
00000170: 8ad7 00bb 8263 2abc b2d7 86bd 6157 a43d
00000180: 201d 49bd 55da 083d 6819 7cbc c07a b83c
00000190: 7155 7cbd d67a 5c3c 196f a93d 9613 bebe
000001a0: 1a82 883d 0df5 d5bd 0019 ea3c a394 063c
000001b0: 2321 833c b87c a2bc 32dd 11bd 35dc 6abd
000001c0: 9425 92bc 5bca 0b3d 171a 10bb eded 1abd
000001d0: 95a1 1cbd b5c0 093d c87e 7f3d 0456 233d
000001e0: 3225 953c 5b06 c43d 04a9 353d 2c3c e0bd
000001f0: 55b6 d83d 61a0 90bd 694e e63c 6934 cbbc
00000200: 2c34 593d a4ae fb3c 31a4 3c3a 1169 c23b
00000210: c6bb 123d 0da8 c63d 22c3 19bd a43e 083d
00000220: cdcc 003d 0e10 f13d 3d7c 83bd 96ce 88bc
00000230: 1277 91bd 124a e63c a503 533b 4791 bb3d
00000240: c0a7 5e3d 246f 08bd 0ebc 98bb 8e23 8dbd
00000250: dd00 7c3d 7962 f33c 751e 9ebd a21f 1fbd
00000260: b191 68bd 1e9e a93d f193 e93c 29dd c03c
00000270: 6da3 b73b a53b 82bd e22c 9bbd d410 503d
00000280: dc3e 083e 6786 ad3d bb58 8f3d a45b cdbc
00000290: a514 b73c d93c 103c ebda fdbb 6136 533d
000002a0: 5dc0 c13c 137d 01bd 430f c4bc 891a 1c3d
000002b0: aec0 c2bc d652 4fbd 2e41 babc 2785 ed3d
000002c0: 765a 773d 6322 a6bc b6f6 fe3c 7db1 913d
000002d0: 17e5 bfbd f7a4 1bbd 85a1 d1bd 5829 f13d
000002e0: d021 92bd 5699 61bd ef85 da3b b44c a73d
000002f0: 0786 e33d f9b5 023c 69ad 0c3d 9125 be3d
00000300: f918 80bd 8698 96bc 418d 02bd bc35 523d
00000310: 931f 5bbc 8b3a f13d 0060 fabb c7ba 2ebb
00000320: 2193 753d b516 8abd aec3 ba3d f453 2cbd
00000330: 4154 a0bd 31e6 4c3c ed33 cc3c cc1c 403d
00000340: 1a04 abbc 3b47 0c3e b9dc e83c 1cf8 123d
00000350: 4b25 8bbd 001c 9f3d 597a 8cbd 3011 443d
00000360: 9959 a6bc 7cf3 e83d a3dd 20bd e0fd e83c
00000370: 9622 04bc 0a00 843d 4d3c 8fbd 1aae 4b3d
00000380: a64a 933d 6c09 9dbc 1dcc 8cbc 0b00 a43c
00000390: 676d 643c aea0 233d ed42 e83c 4634 253e
000003a0: 3fb3 0b3c ced8 0fbd 5c84 96bd e0ef 013c
000003b0: 2adc 923d de81 4a3d b470 743c 2c88 46bc
000003c0: dce5 b53c 7cf4 c33d a1d6 cdbb 10ec 933d
000003d0: 8e2a 4d3d 00e9 d3bd 73cb 653b 8f15 ab3d
000003e0: cb42 2bbc 372c f4bc 919b 1e3d 53e9 313d
000003f0: fca7 05bc 0562 6dbb 1dab 88bc b1e1 593c
-0.0013185538 -0.036825076 0.045922916 -0.024366828 -0.12050838 0.023658628 -0.03303914 0.09726549
-0.10530798 0.018600808 0.0015177742 0.08307689 0.007109878 0.022378258 0.054982606 -0.065459
0.05048345 -0.0134662045 0.09483975 0.016054735 -0.05725675 0.029962452 -0.014836207 -0.042076305
-0.15925722 0.02821636 0.010596211 0.012607064 -0.054246593 -0.019136855 -0.065325364 -0.056788918
0.0675678 -0.01741927 -0.04545925 0.03597716 -0.0058217505 -0.031088471 -0.0018783476 -0.013710003
-0.04924575 0.056252677 -0.07773493 0.014089544 -0.033219527 0.036189053 -0.116591945 -0.021362493
0.08743276 -0.023528779 -0.06988667 -0.0491634 0.021655053 0.039159816 0.1331752 0.09487897
-0.09547547 -0.064700045 -0.061343558 0.11873225 0.09068853 0.060450997 -0.0009963546 -0.026838118
-0.07169611 -0.026597157 0.030403199 -0.060685564 -0.0047019245 0.080180064 -0.034639053 -0.06156625
-0.11576486 -0.028967325 -0.012382255 -0.059840754 -0.08567936 0.03962993 -0.04173182 -0.12346789
-0.024173604 -0.036240358 0.03054747 0.07331809 0.0011728875 -0.0135783795 -0.033686668 0.056305476
0.038072992 -0.023817707 0.031178806 -0.17624325 -0.0019659721 -0.010399701 -0.06584109 0.08024479
-0.04910004 0.033411343 -0.015386917 0.02251947 -0.06160492 0.013457021 0.08273143 -0.37124318
0.0666544 -0.1044713 0.028576374 0.008214149 0.016007012 -0.019834861 -0.03561134 -0.057338912
-0.017840184 0.034128528 -0.0021988207 -0.03782456 -0.038240034 0.033631045 0.062376767 0.039876953
0.018206213 0.09571525 0.04435064 -0.10948977 0.10581652 -0.0706184 0.02811356 -0.024805265
0.05302827 0.030722924 0.0007196097 0.005932935 0.035823606 0.09700022 -0.03753961 0.033262864
0.031445313 0.1177064 -0.06420181 -0.01670007 -0.07102789 0.028111491 0.0032198217 0.09158569
0.054359198 -0.033309117 -0.0046610897 -0.06891547 0.06152426 0.029710041 -0.07720653 -0.038848527
-0.056779567 0.082821116 0.028512927 0.023542957 0.0056041987 -0.063590325 -0.0757692 0.0507973
0.13305229 0.08472901 0.06999346 -0.025068112 0.022348711 0.00880357 -0.0077470443 0.05156553
0.023651296 -0.03161342 -0.023933059 0.038111243 -0.023773517 -0.050616108 -0.022736158 0.115976624
0.060389005 -0.020280069 0.0311235 0.07113931 -0.09369867 -0.03799912 -0.102358855 0.11775464
-0.071353555 -0.055077873 0.006668798 0.08168927 0.11109548 0.007977956 0.034345064 0.09284509
-0.06254763 -0.018383276 -0.03187299 0.051320776 -0.013374227 0.11778744 -0.0076408386 -0.002666162
0.059954766 -0.06742612 0.09119354 -0.04207225 -0.0782857 0.012506054 0.024927104 0.046902463
-0.02087598 0.13699047 0.028425561 0.035881147 -0.067942224 0.077690125 -0.068592735 0.047867954
-0.020306395 0.11374566 -0.03927387 0.02844137 -0.008064887 0.0644532 -0.06993923 0.049726583
0.071919724 -0.019169532 -0.017187173 0.020019552 0.013942099 0.039948158 0.028352225 0.16133222
0.008526622 -0.03511887 -0.07349464 0.007930726 0.07170899 0.049440257 0.014919449 -0.012117427
0.022204332 0.09568116 -0.0062816893 0.0722276 0.05008941 -0.103471756 0.0035063892 0.08353721
-0.010452936 -0.02980624 0.03872258 0.043435406 -0.008157726 -0.0036221754 -0.016683156 0.013298438

fc2.bias f4 [128]
00000000: 06de ad3d 0274 f63d 6508 023c c3a3 023e
00000010: 06fc 693e 348c f2bd eb16 24bd 12c7 78bd
00000020: 97db 60bd 100a a43d 66a8 f2bc 5d27 42bc
00000030: 60ba 8b3d e252 a83d a1fc ef3b 8d4a 5b3d
00000040: 3f01 1abc dbc0 473b d826 e4bc 2c8c 0fbb
00000050: 072d 073e dda5 753e 270c cf3d 181f 88bd
00000060: 093d 56bd 2582 4fbd 7900 b2bd 56a2 e4bd
00000070: 2a3a 34bc 7bac 9bbd 22b1 9dbd 743b e53d
00000080: 3365 243d db72 c7bd 5ad4 b2bd 044b f63d
00000090: d4bc ae3d f012 4e3d 4f96 76bd 05f8 00be
000000a0: 74b9 363e ceb7 363d 1b7b 97bd ba07 e73d
000000b0: e70b 883d 6b47 993d b2c5 b73d 98d4 2a3e
000000c0: 8282 cfbb 815b 773c c6db ed3c 730f 693e
000000d0: 4bc3 9a3d 2470 cabd 6e91 a93d d592 3bbd
000000e0: 5183 8c3d 9570 813d aabb 643d feff 00be
000000f0: 9992 103c 407f b13c 901d 443e 8812 a7bd
00000100: 4412 6b3d 16fc 94bd 6b6e d63d 6d7a 633c
00000110: 7b13 cabb 4e15 d3bd f369 153d 12b7 5abd
00000120: 1be2 593d 4e67 b73d 4018 36bb a501 dc3c
00000130: ed50 46bd 4963 4abc 61bf 933d 12ae 0d3e
00000140: 2c4b a1bd c155 a5bd 68bc a1bd 1d80 1ebd
00000150: 3298 6a3e 117f a4bd 3a49 49bd 6230 013e
00000160: c175 1f3e 6193 50bd 9efc e83d 674e a4bd
00000170: 0666 bd3d 862a adbd da85 673c b5d4 193d
00000180: d827 203e 2c83 3dbd 4a22 43bd 272d 50bd
00000190: 0717 24bd ae9b c5bd 58dd babd d190 dbbd
000001a0: 92c7 bdbd 41e2 063e 9395 bcbc 9687 cabc
000001b0: 92b4 803d 5599 92bc 3419 fabd 7f27 cf3d
000001c0: 48ee 1abd 141a a9bc 93d0 543d cf65 393e
000001d0: dfc8 bfbd 33fd 063c 78c7 fcbd ac99 90bd
000001e0: 47da 32bd d6ae c63c 6415 55bc 1ce6 35b9
000001f0: 637d c83b fa08 4b3d 69e3 98bd dfc4 fe3c
0.08489613 0.120338455 0.007936572 0.12757783 0.22850046 -0.11843148 -0.04006092 -0.060736723
-0.054896917 0.08009732 -0.029621314 -0.011850205 0.068226576 0.08218934 0.007323817 0.053537894
-0.009399711 0.003047994 -0.027850553 -0.0021903617 0.1320077 0.23989053 0.1010974 -0.06646556
-0.0523043 -0.050661225 -0.086914964 -0.111637756 -0.0110001955 -0.076012574 -0.07699801 0.111929804
0.040135574 -0.09738704 -0.08731909 0.12026027 0.0853211 0.05031103 -0.06020194 -0.12594612
0.17844182 0.044608884 -0.073965274 0.112807706 0.06642895 0.07484325 0.08973254 0.1668266
-0.0063326964 0.0150975 0.02903546 0.227598 0.075567804 -0.098846704 0.08279692 -0.045794327
0.06860984 0.063203014 0.055843033 -0.12597653 0.008824014 0.021667123 0.19151902 -0.081578314
0.057390466 -0.07274644 0.10470279 0.013884169 -0.006166873 -0.10306798 0.036477994 -0.053397246
0.053194147 0.08955251 -0.002778545 0.026856253 -0.04841702 -0.012352773 0.07214237 0.13835934
-0.07875666 -0.08072997 -0.07897264 -0.038696397 0.2290962 -0.080320485 -0.0491421 0.12616113
0.15572263 -0.0509218 0.11376308 -0.080227666 0.09247975 -0.08455376 0.014131034 0.03755637
0.15640199 -0.046267673 -0.047640122 -0.05082431 -0.040061023 -0.09648834 -0.09124249 -0.10720981
-0.09266581 0.13172247 -0.023020541 -0.024722856 0.06284441 -0.01789538 -0.12211838 0.10114955
-0.0378249 -0.020642318 0.051956724 0.18105243 -0.09364485 0.008239078 -0.12342733 -0.070605606
-0.043665197 0.02425329 -0.013005588 -0.00017347228 0.006118463 0.049569108 -0.0746525 0.031099735

fc3.weight f4 [1, 128]
00000000: b926 a23d 7aae 8d3d 9d7e 54be c162 bf3d
00000010: 6f40 b33d 7e0d 18be 7233 123e 140a 6fbd
00000020: 1c64 2bbe b2ec 2e3e c6f1 e9bd 9323 e2bd
00000030: b0f4 053e 7e9c 413e c72b fc3d ed74 e33d
00000040: 010f 12be 0609 bcbd b111 92bd 1c77 cfbd
00000050: 8335 4f3e efac c43d 66f8 143e 322b 00bd
00000060: 4e2f 0dbe 008a 8bbd 5285 1cbe 0658 2bbe
00000070: 8186 3ebe 804c ccbd 44de 32be 265a 003e
00000080: 483d b73d 3f28 42be c920 3cbe 0b2b 193e
00000090: b664 2f3e 71ff b03d 30c6 00be 3e0b 26be
000000a0: f10f ea3d b213 2b3e 8cdc 53be 1486 9a3e
000000b0: 41a5 533e 01ef 3c3e e539 243e 1d9a dc3e
000000c0: 83aa 8d3d c7c2 1b3e 21ec 2e3e cbd5 9f3d
000000d0: 887d aa3d d2bd 60bd 85af 933e 9286 babd
000000e0: 21e5 713d 0471 cb3e c150 8c3e 2362 67bd
000000f0: 87ee d83d 3fd9 363e 6637 1c3e 7e50 08be
00000100: 471b 2a3e 581c 8ebd a846 f83d 17be 3e3e
00000110: c407 19be c920 c0bd 3bca d53d 0d1f f0bd
00000120: 1183 a33d 39d3 ff3d 119e bebd 4a2a 6b3d
00000130: 15f2 1ebe c24c ffbd fbb6 4f3e 8cd5 c13d
00000140: 89c9 b6bd a6ba 09be 89a7 18be 9d67 84bd
00000150: 4f54 cb3d 0d01 cbbd ffdc 63bd 718b b43d
00000160: dc1b 6b3e 95bb 34be f801 883d 9993 a0bd
00000170: d606 003e cc1f 2cbe 772a e53d 7d12 013e
00000180: 5d3f b13d 477e 36be 8b07 40be ff4c dbbd
00000190: 395a 89bd fd15 70bd 1398 b6bd 2546 9bbe
000001a0: d64e 31be a663 023e 6076 e9bd de05 fabd
000001b0: b81a af3d c49a 1ebe e240 26be 5af7 a43e
000001c0: c7f0 ecbd b37b f8bd 356b c23d 4d2a 9b3d
000001d0: 9600 fbbd a547 48be ffc9 79be 24d2 86bd
000001e0: fa1f 22be f246 f53d 5a4e 09be 04ab e0bd
000001f0: 74f4 063e e318 ae3d 4ed0 8cbd 3d89 793e
0.07917542 0.069180444 -0.20751424 0.09345008 0.08752524 -0.14848897 0.14277437 -0.05835922
-0.16737407 0.1708248 -0.11423068 -0.110419415 0.13081622 0.18907353 0.12313037 0.11106286
-0.14263536 -0.091814086 -0.071322806 -0.1013014 0.20235257 0.09603297 0.14547881 -0.031291194
-0.13787577 -0.06813431 -0.15285233 -0.16732797 -0.18605997 -0.09975529 -0.174676 0.12534389
0.08947235 -0.18960665 -0.18371882 0.14957826 0.17128262 0.086424716 -0.12575603 -0.16215226
0.11428822 0.16706732 -0.206896 0.30180418 0.20668508 0.18450548 0.1603771 0.4308633
0.06917288 0.1521102 0.17082264 0.0780445 0.083247244 -0.054868527 0.28844848 -0.091076985
0.059056405 0.39734662 0.2740536 -0.056490075 0.105923705 0.1785631 0.15255508 -0.13311955
0.16611968 -0.06939 0.121228516 0.18627201 -0.14944369 -0.09381253 0.10438963 -0.117246725
0.07983983 0.124914594 -0.093074925 0.057413377 -0.15522034 -0.12465812 0.20284645 0.09464559
-0.089251585 -0.13450107 -0.1490766 -0.06465075 0.0992819 -0.0991231 -0.05563068 0.08815659
0.22959846 -0.17649682 0.066410005 -0.07840652 0.12502608 -0.16809005 0.1118974 0.12604709
0.08654664 -0.17821608 -0.18752877 -0.10708045 -0.06706662 -0.05861472 -0.089157246 -0.30326954
-0.1731523 0.12733325 -0.11399531 -0.1220815 0.08550018 -0.15488726 -0.16235688 0.32219964
-0.11569362 -0.12132969 0.09493104 0.075764276 -0.12255971 -0.1955858 -0.24393462 -0.0658305
-0.1583251 0.11976422 -0.13408795 -0.10970119 0.13179189 0.085008405 -0.068756685 0.24368758
