cache/checkpoint_1_critic.pth (torch, 172804 bytes, 9 tensors)

bn1.weight f4 [33]
0	0x3f85f271	1.0464612
1	0x3f67cd89	0.90547997
2	0x3f88708a	1.0659344
3	0x3f2ea676	0.6822275
4	0x3f2fe846	0.68713796
5	0x3f257b13	0.6464092
6	0x3f32ca93	0.69840354
7	0x3ec3bab5	0.38228384
8	0x3eca69d1	0.39533857
9	0x3f1088aa	0.5645853
10	0x3f48231d	0.7817858
11	0x3f096d71	0.5368262
12	0x3f1a5895	0.60291415
13	0x3faa95b9	1.3326942
14	0x3f72f8da	0.9491097
15	0x3fae5364	1.3619199
16	0x3f719033	0.94360656
17	0x3f608f3a	0.87718546
18	0x3f60621c	0.87649703
19	0x3f84c7a7	1.0373429
20	0x3ee073d9	0.43838385
21	0x3eb0852f	0.3447661
22	0x3ec84bbd	0.39120284
23	0x3f88d3a8	1.0689592
24	0x3f47ddc6	0.78072774
25	0x3f864d20	1.0492287
26	0x3fa891e9	1.3169528
27	0x3f800000	1.0
28	0x3fbc2b4a	1.4700711
29	0x3f800000	1.0
30	0x3f800000	1.0
31	0x3f800000	1.0
32	0x3fc3b949	1.529092

bn1.bias f4 [33]
0	0xbc76d7ea	-0.015066126
1	0xbdc4b790	-0.09605324
2	0xbbe91f26	-0.007114309
3	0x3e1c5dcc	0.15270156
4	0xbdcb0182	-0.09912397
5	0xbd4ff6f5	-0.050772626
6	0xbc853275	-0.016259411
7	0xbe42d636	-0.19027027
8	0xbccdb6bb	-0.025111547
9	0xbe00b3d3	-0.12568597
10	0xbca4b0d6	-0.020103853
11	0xbe43241b	-0.19056742
12	0xbd21f573	-0.03954072
13	0xbc5869e9	-0.013208845
14	0x3d166132	0.036713786
15	0x3c36a611	0.011147992
16	0xbbc219fc	-0.0059235077
17	0x3dcf3316	0.10117166
18	0x3dded2f4	0.1088008
19	0x3e0d49f9	0.1379775
20	0xbe4c7bf6	-0.19969162
21	0x3ca0eac8	0.019643202
22	0xbdd16f72	-0.10226335
23	0x3d0a485f	0.033760425
24	0xbc9c9323	-0.019113129
25	0x3c1d8eec	0.009616595
26	0x3c878854	0.016544499
27	0x3e28de0c	0.16490954
28	0x3c884ef0	0.016639203
29	0x3e12d095	0.1433738
30	0xbe17671a	-0.14785424
31	0xbe3883d3	-0.18019037
32	0xbcf64ba3	-0.030065363

bn1.running_mean f4 [33]
0	0x3f329e3c	0.69772696
1	0xc037b20c	-2.870242
2	0x3d0ef1eb	0.03489868
3	0x3f6b23f9	0.91851765
4	0x3db38139	0.08764882
5	0x3b11dce0	0.0022256896
6	0x3b3ae229	0.002851615
7	0x3c4c2719	0.0124604935
8	0xbbf40ef2	-0.0074480707
9	0x3c024c6f	0.0079527935
10	0x3cea05f6	0.028567296
11	0x3ca1b14b	0.01973786
12	0xbd1896be	-0.037253134
13	0x3ea96c1d	0.33090296
14	0xc042b2db	-3.0421665
15	0x3f081090	0.5315027
16	0x3d2cb030	0.042160213
17	0x3d297330	0.041369617
18	0x3dfdd43f	0.12393998
19	0x3eefbcaa	0.46823627
20	0x3cb6f1bd	0.022332067
21	0x3d09eb7d	0.033671845
22	0x3c008f58	0.007846676
23	0x3d19b46b	0.037525576
24	0x3e021532	0.12703398
25	0xbd111f1b	-0.035430055
26	0x3c8d7ad6	0.017270487
27	0xbf7ffffc	-0.99999976
28	0x3e3f1c2a	0.18663087
29	0x00000000	0.0
30	0x3f7ffffc	0.99999976
31	0x00000000	0.0
32	0xbc879129	-0.01654871

bn1.running_var f4 [33]
0	0x40306511	2.7561686
1	0x3e98c079	0.29834345
2	0x408871d6	4.263896
3	0x3c372783	0.011178854
4	0x3d3810e1	0.044937972
5	0x3b97ba0a	0.004630332
6	0x3db3f345	0.08786634
7	0x3e3f302a	0.18670717
8	0x3d163e3d	0.03668045
9	0x3d8cb6d8	0.06870812
10	0x3fb5e6d1	1.4211065
11	0x3f0fce67	0.5617432
12	0x3ff295df	1.8951987
13	0x416d85ef	14.845199
14	0x3f9452d2	1.1587775
15	0x41a43d0b	20.529806
16	0x3d9aa6ad	0.07551322
17	0x3e177810	0.14791894
18	0x3d9cf7e2	0.076644674
19	0x3eec8c3d	0.46200743
20	0x3f9dfde0	1.2343102
21	0x3ed44e5d	0.41466036
22	0x3ea82e63	0.3284789
23	0x40bffa55	5.999308
24	0x401370ee	2.3037677
25	0x4100b13a	8.043268
26	0x41f89506	31.072765
27	0x00000004	6e-45
28	0x4203811d	32.876087
29	0x00000004	6e-45
30	0x00000004	6e-45
31	0x00000004	6e-45
32	0x3eaaf1c4	0.33387578

fcs1.weight f4 [256, 33]
0	0x3d625645	0.055258054
1	0x3baa639c	0.0051998626
2	0x3860694d	5.350383e-05
3	0xbccab9e9	-0.024746852
4	0x3d1888a0	0.03723967
5	0x3ce4bc9b	0.027921965
6	0x3cf7a8f5	0.030231932
7	0x3ccfee86	0.025382292
8	0xbc9e3fba	-0.019317497
9	0xbcf6f9d6	-0.030148428
10	0x3d3141fc	0.04327582
11	0xba386f28	-0.00070356065
12	0xbb854691	-0.00406725
13	0xbd275497	-0.040852156
14	0xbaa226ed	-0.001237122
15	0x3c4e07f1	0.012575136
16	0x3cad4894	0.021152772
17	0xbcdb72ab	-0.026788076
18	0x3d301765	0.04299106
19	0x3c730d17	0.014834664
20	0x3c6a9f2c	0.014320176
21	0xbb100895	-0.0021977772
22	0x3cd5d412	0.0261021
23	0x3cdef6f3	0.027217364
24	0x3ca24119	0.019806432
25	0xbcc2d732	-0.023784254
26	0x3db17dd2	0.086665764
27	0xbdcb46ba	-0.099255994
28	0xbd58485f	-0.052803393
29	0xbd3281af	-0.043580707
30	0xbc544fbf	-0.012958466
31	0x3d9dbd79	0.07702155
32	0x3e5cd1c2	0.21564391
33	0x3c6299a4	0.013830576
34	0xbce8d6fd	-0.028422827
35	0x3cfa202d	0.03053292
36	0xbc82a349	-0.015947001
37	0xbbb59ec8	-0.00554261
38	0x3ba4db1e	0.0050310036
39	0x3cbb5c9b	0.022871306
40	0xbb8533d8	-0.004065018
41	0xbb9a7b8a	-0.004714434
42	0xbd11ddee	-0.03561204
43	0xbcaee250	-0.021348149
44	0x3ce6970c	0.028148197
45	0x3d33d622	0.043905385
46	0xbd648441	-0.05579019
47	0x3e8d08fe	0.27545923
48	0x3e18f508	0.14937222
49	0x3d1140b2	0.03546209
50	0xbd55b806	-0.05217745
51	0xbd4e4081	-0.050354484
52	0x3c7f6317	0.01558759
53	0x3cb17001	0.021659853
54	0xbb0276b9	-0.001990719
55	0x3c4d2a6a	0.012522319
56	0x3cd3be32	0.025847528
57	0x3e0b2a17	0.13590275
58	0x3d8fb0f8	0.07016176
59	0x3d67f219	0.056627367
60	0xbde13717	-0.10996836
61	0xbd62a1f7	-0.055330243
62	0xbd99dc3d	-0.0751271
63	0x3e0d72e1	0.13813354
64	0x3e1cd07c	0.15313905
65	0xbd62e81a	-0.05539713
66	0xbc9ac9d3	-0.018895065
67	0xbb2ef9b8	-0.0026699137
68	0xbd5bc955	-0.053658802
69	0xba5b38bb	-0.00083626405
70	0x3bce5b57	0.0062975097
71	0x3c9bf53d	0.019037837
72	0xbdb93e42	-0.09045078
73	0xbb61887c	-0.0034413626
74	0xba153b7f	-0.00056927645
75	0x3d4aad40	0.04948163
76	0xbbecbea6	-0.0072248755
77	0x3c9378f1	0.018002005
78	0xbd2f2dd0	-0.0427683
79	0x3cf2e976	0.029652338
80	0x3bf836e5	0.0075749033
81	0x3cbd762c	0.023127638
82	0xbd1e7d8d	-0.038693953
83	0xbc9fbd04	-0.01949931
84	0xbd5abd3d	-0.053403128
85	0xbdce2a6b	-0.10066684
86	0x3d84ba4d	0.064808466
87	0x3caf5639	0.021403419
88	0xbd0b5666	-0.034017943
89	0xbc803054	-0.015648045
90	0x3d564da0	0.052320123
91	0xb99540b7	-0.0002846771
92	0x3d637e0b	0.055540126
93	0x3d2f6951	0.042825047
94	0xbdbd7479	-0.09250731
95	0x3b1ce3e8	0.0023939554
96	0xbcdce3f7	-0.02696417
97	0x3d9fedf7	0.0780906
98	0xbdc56053	-0.09637513
99	0xbd850349	-0.06494767
100	0x3bf6f331	0.007536315
101	0xbc79bf68	-0.015243389
102	0x3cd96894	0.026539125
103	0x3beb5789	0.007182066
104	0xbca6dd7f	-0.02036929
105	0x3d12af93	0.035811972
106	0x3cacac47	0.021078242
107	0xbcc551dc	-0.024086885
108	0xbc7a7f5a	-0.015289152
109	0xbae2d496	-0.0017305787
110	0xbd2fffed	-0.04296868
111	0x3d3094e2	0.043110736
112	0x3cfecb7c	0.031102888
113	0xbc1bcb81	-0.009508968
114	0x3dd08441	0.101814754
115	0xbd303b10	-0.043025076
116	0x3c864b01	0.016393187
117	0xbc4db622	-0.012555631
118	0xbc5c1308	-0.013432272
119	0xbcf60825	-0.03003318
120	0x3cbe11fe	0.023201939
121	0x3c08b592	0.008344071
122	0xbd22df03	-0.03976346
123	0xbbef284d	-0.0072985054
124	0x3d2c5a91	0.04207856
125	0xbde3a5e6	-0.11115627
126	0x3dda66a0	0.106641054
127	0xbc571140	-0.013126671
128	0x3da8a4c8	0.082345545
129	0xbe090c8c	-0.13383693
130	0xbd83cc9d	-0.06435511
131	0xbdb70961	-0.08937336
132	0xbe4e6887	-0.20157062
133	0x3c807102	0.015678886
134	0x3da3b586	0.07993607
135	0x3c1ab6ca	0.009442994
136	0xbd5bcb5e	-0.053660743
137	0x3d1ca0b0	0.03823918
138	0x3c857517	0.016291184
139	0x3cbbca54	0.022923626
140	0xbcfca651	-0.030841025
141	0x3d8d64a3	0.069039606
142	0xbdc00d70	-0.09377563
143	0x3d11e0f3	0.03561492
144	0x3c5bcbb5	0.013415267
145	0xbcbc100d	-0.022956872
146	0xbc2f4e04	-0.010699753
147	0xbd9d7af6	-0.076894686
148	0x3d533205	0.051561374
149	0xbbfd265e	-0.007725521
150	0xbd9603e7	-0.07324963
151	0x3d8f7539	0.0700478
152	0x3c98b6af	0.018641798
153	0xbd2a4e18	-0.041578382
154	0x3cc896da	0.024485994
155	0xbd202653	-0.03909905
156	0xbd468c56	-0.04847368
157	0x3c432625	0.01191095
158	0x3e021f7b	0.12707321
159	0xbc3f6a43	-0.01168305
160	0x3d2221cf	0.039583024
161	0xbde413cb	-0.11136588
162	0x3c31090b	0.010805379
163	0x3de8d37a	0.11368461
164	0x3d153891	0.0364309
165	0xbb7e6023	-0.0038814626
166	0xbd63a5d8	-0.055578083
167	0xbcb53a54	-0.02212254
168	0x3c20c71d	0.009813097
169	0x3c87de55	0.016585508
170	0x3cab7afc	0.020932667
171	0xbd224a48	-0.03962162
172	0x3ca99d26	0.020704817
173	0x3db44088	0.08801371
174	0xbd1fdd4b	-0.0390294
175	0xbc3a91ec	-0.01138733
176	0x3d8df372	0.06931199
177	0x3ba35533	0.004984522
178	0x3bafd492	0.0053659165
179	0x3d6bbac1	0.05755115
180	0xbd861f15	-0.06548897
181	0x3c0530f7	0.00812935
182	0xbd423b5c	-0.04741989
183	0xbdf088e0	-0.11744857
184	0x3d39251c	0.045201406
185	0x3b0b4468	0.002125049
186	0x3cdc1e24	0.02686984
187	0xbc1294cd	-0.00894661
188	0xbd780dca	-0.060560025
189	0x3afa5e6a	0.0019101624
190	0xbd983378	-0.07431692
191	0xbd022a3c	-0.03177856
192	0xbd4aa77f	-0.049476143
193	0x3d51d1c8	0.051225454
194	0xbd46a15f	-0.04849374
195	0x3d507579	0.05089328
196	0x3da7f66c	0.08201298
197	0x3bbe1c4e	0.005801714
198	0x3d213acb	0.03936271
199	0x3d49575e	0.049155585
200	0x3cc053f1	0.023477526
201	0x3c0e7998	0.008695982
202	0x3d12c225	0.035829682
203	0x3cbfde2f	0.023421375
204	0x3d848dfe	0.06472395
205	0x3d43182a	0.047630467
206	0x3d396ce7	0.045269873
207	0x3ce08da6	0.027411293
208	0x3d0c794a	0.034295358
209	0xbc9324e9	-0.017961936
210	0x3af524b3	0.0018702954
211	0x3ab6f02f	0.0013957078
212	0xbd08801c	-0.0333253
213	0xbd97225d	-0.07379601
214	0xbbb8dded	-0.00564169
215	0x3d84176a	0.064497784
216	0x3d6eae8f	0.05827194
217	0x3d03d98c	0.03218989
218	0x3b0eb2e1	0.00217741
219	0xbb594d14	-0.0033157514
220	0x3c89bfd6	0.016815107
221	0xbba2fa1d	-0.0049736635
222	0xbcc4ba0b	-0.024014493
223	0xbc1c700e	-0.0095482
224	0x3cadf8f9	0.021236883
225	0x3d8acdf9	0.067775674
226	0xbd858d83	-0.06521132
227	0x3d5999f9	0.053125355
228	0xbe0b96f0	-0.13631797
229	0xbd97445e	-0.07386087
230	0xbd0eaab3	-0.03483076
231	0xbc2973d9	-0.010342562
232	0xbc8eeff9	-0.017448412
233	0x3d8cf7de	0.068832144
234	0xbca890a3	-0.02057678
235	0x3d82dfeb	0.06390365
236	0xbd095b73	-0.03353448
237	0xbc0546a9	-0.0081345225
238	0x3cf80145	0.030274043
239	0x3c41eb8e	0.011835946
240	0x3c28695c	0.010279026
241	0x3c4d0576	0.012513509
242	0x3bd4d078	0.006494578
243	0x3c867d8f	0.016417293
244	0x3d43415e	0.04766976
245	0xbc48a7ca	-0.012247035
246	0xbd9e2276	-0.07721417
247	0x3cf362c5	0.029710183
248	0x3d107295	0.035265524
249	0xbe214641	-0.15749456
250	0xbd235e52	-0.039884873
251	0xbb452bce	-0.0030085924
252	0xbd48dd51	-0.04903919
253	0xbaec3448	-0.0018020952
254	0xbc213efe	-0.009841679
255	0xbb8f2044	-0.00436786

fcs1.bias f4 [256]
0	0xbdf4847d	-0.11939333
1	0xbe2fff3c	-0.17187208
2	0xbcf1cfc4	-0.029518016
3	0x3dc56b2f	0.09639584
4	0x3dc26449	0.09491784
5	0x3d039b1d	0.03213035
6	0x3e50db76	0.20396218
7	0x3e2e6b7d	0.17033191
8	0xbdec6588	-0.11542803
9	0x3e5908ee	0.21194813
10	0xbcd18a2a	-0.025578577
11	0xbbc96d1a	-0.006147039
12	0x3c8579db	0.016293457
13	0xbe016e28	-0.12639678
14	0xbbceefb3	-0.0063151955
15	0xbdf4aef1	-0.1194743
16	0x3e5e2516	0.21693835
17	0x3db4571e	0.08805679
18	0x3dbf8a2d	0.09352527
19	0xbdc59ad4	-0.09648672
20	0xbdeaefc3	-0.11471512
21	0xbe02fffa	-0.1279296
22	0x3d3d31d8	0.046190113
23	0x3deec13a	0.11657949
24	0xbdf6aa98	-0.12044257
25	0x3d8bfbfa	0.0683517
26	0x3e147f2f	0.14501642
27	0xbdecdd41	-0.11565638
28	0x3e23171e	0.15926787
29	0x3e01031e	0.12598845
30	0xbe0045d0	-0.12526631
31	0xbdfad4d1	-0.12247623
32	0x3d379e2d	0.044828583
33	0x39ad8f8a	0.00033104076
34	0xbe1531b0	-0.14569736
35	0xbdf2769d	-0.1183903
36	0x3d30d3fb	0.04317091
37	0xbbf4a2c6	-0.007465693
38	0xbdda8222	-0.10669352
39	0x3e4370cc	0.19085997
40	0xbdbf1495	-0.093300976
41	0xbda023d0	-0.07819331
42	0x3d2751b2	0.040849395
43	0x3e2bd4f4	0.16780454
44	0x3da06570	0.07831848
45	0x3d03c97c	0.032174572
46	0x3e01991e	0.12656066
47	0x3d415288	0.04719785
48	0x3e87daa9	0.26534012
49	0xbe56f09f	-0.20990227
50	0xbe548d5f	-0.20757054
51	0xbdf018b3	-0.11723461
52	0xbd3e91e7	-0.046525862
53	0x3e8b38f2	0.27191883
54	0xbe147c49	-0.14500536
55	0x3e544485	0.20729263
56	0xbe57a7b1	-0.21060063
57	0x3d344a46	0.044016145
58	0xbe47e40d	-0.19520588
59	0x3da01960	0.0781734
60	0xbd7f2401	-0.062290195
61	0xbe1c97ae	-0.15292236
62	0xbe5d9808	-0.21640027
63	0x3d91e95d	0.07124589
64	0xbdf48f34	-0.11941376
65	0xbe0808ee	-0.13284656
66	0xbe2dbe67	-0.16967164
67	0x3d137d8b	0.0360084
68	0xbe3768d9	-0.1791109
69	0xbe329ed7	-0.17443405
70	0xbd61ef21	-0.05515969
71	0xbe43b9f3	-0.19113903
72	0xbe08b806	-0.1335145
73	0xba98246b	-0.0011607533
74	0xbe69f6a4	-0.22847992
75	0x3d05770b	0.03258423
76	0x3c9c6bca	0.019094367
77	0x3dbd46f4	0.09242049
78	0xbd031fc1	-0.032012705
79	0xbd3a5027	-0.045486595
80	0x3cda2783	0.026630169
81	0xbde7242f	-0.11286198
82	0xbe1877e1	-0.1488948
83	0x3e77f68f	0.24215148
84	0xbd2978db	-0.041375022
85	0xbc747848	-0.014921255
86	0x3e1c8ade	0.15287349
87	0xbb6d2e3f	-0.0036190895
88	0xbdbc7731	-0.092024215
89	0x3bc9eaab	0.006162008
90	0x3d6193c4	0.05507256
91	0xbe28d26d	-0.16486521
92	0x3d939382	0.07205869
93	0x3cabe740	0.020984292
94	0x3cf6dd42	0.0301348
95	0xbc177b67	-0.00924573
96	0xbe01afc3	-0.12664704
97	0x3d90ae3c	0.070644826
98	0xbe49ef78	-0.19720256
99	0xbd24840a	-0.040164985
100	0xbdeec553	-0.1165873
101	0xbd8ef16d	-0.06979642
102	0xbd407998	-0.04699096
103	0xbe03ca6b	-0.12870185
104	0xbe18ac7e	-0.1490955
105	0x3e02405f	0.12719868
106	0x3dabeeb2	0.08395137
107	0x3e4179e7	0.18894158
108	0xbca63f36	-0.020293813
109	0xbcaac286	-0.02084471
110	0x3d242c5a	0.04008136
111	0x3da5a206	0.08087544
112	0xbd9ae5c7	-0.07563358
113	0xbe2fd391	-0.1717055
114	0xbe025863	-0.1272903
115	0xbdf7e759	-0.12104673
116	0x3e2d542e	0.16926643
117	0x3e35555f	0.17708348
118	0x3bc1c4cc	0.0059133526
119	0xbd63881a	-0.05554972
120	0xbe31a8d8	-0.17349565
121	0x3d9d8645	0.076916255
122	0xbcf8d154	-0.030373253
123	0x3d5c9525	0.053853173
124	0xbcc34b71	-0.023839684
125	0x3d28a1aa	0.0411698
126	0xbe18a09f	-0.14905022
127	0x3db46b5a	0.08809538
128	0x3e2a9cfc	0.16661447
129	0xbda50305	-0.080572166
130	0x3e3fbe1f	0.18724869
131	0x3d80d626	0.062908456
132	0x3e1030e3	0.14081149
133	0xbdf4d04d	-0.11953793
134	0xbd47a944	-0.04874541
135	0xbe630073	-0.2216814
136	0x3dfc47d7	0.1231839
137	0x3e5c1e3d	0.2149591
138	0xbac02624	-0.0014659804
139	0xbd0000e1	-0.03125084
140	0xbe18ee84	-0.14934736
141	0xbd829003	-0.06375124
142	0x3d99ae1f	0.07503914
143	0xbe1f4e72	-0.15557268
144	0x3e083d12	0.13304546
145	0x3d57dfbd	0.052703608
146	0x3d78bdfc	0.06072806
147	0xbc90f317	-0.01769404
148	0xbcf01195	-0.029305259
149	0xbc9afde6	-0.018919896
150	0x3c9a49ea	0.018834073
151	0xbd5ddaed	-0.054163862
152	0xbcd7e468	-0.02635403
153	0xbd8ccca9	-0.06874973
154	0xbd4001ae	-0.046876602
155	0xbe0839e8	-0.1330334
156	0xbe02c65c	-0.1277098
157	0x3c8e3306	0.017358314
158	0x3e5592dd	0.20856805
159	0xbdb1ed2e	-0.086878166
160	0xbd9c9a9d	-0.07646678
161	0x3dbb6bab	0.091513954
162	0xbcf61b24	-0.030042239
163	0xbe812276	-0.25221604
164	0x3dbc36c2	0.09190132
165	0x3e1866f1	0.14883019
166	0x3e2517d9	0.16122378
167	0x3e147693	0.14498357
168	0x3e1c95f7	0.15291582
169	0xbd88192c	-0.06645426
170	0xbe179d38	-0.14806068
171	0xbe2eef52	-0.17083481
172	0xbdf72baa	-0.12068875
173	0x3d6229f8	0.055215806
174	0xbe0bd39f	-0.13654946
175	0x3d67ce42	0.056593187
176	0xbdbe9008	-0.093048155
177	0x3e5527ff	0.20816039
178	0x3d553c31	0.052059356
179	0x3e3d4f8a	0.18487373
180	0x3cb6543f	0.022256969
181	0x3cc721be	0.024308082
182	0x3d6a80e6	0.057251833
183	0xbd1dd785	-0.038535614
184	0xbdc9226e	-0.0982102
185	0x3e278d6e	0.16362545
186	0x3e136af9	0.14396276
187	0xbdb3da60	-0.08781886
188	0x3d60a0e4	0.054840937
189	0x3d9aabb7	0.07552283
190	0xbde9fbfb	-0.114250146
191	0x3e15a363	0.14613108
192	0xbd457e43	-0.048216116
193	0xba64db9a	-0.0008730233
194	0xbe2c159e	-0.16805121
195	0xbd276096	-0.040863596
196	0x3dd21f09	0.10259826
197	0x3dcc79ea	0.09984191
198	0xbdb87dbe	-0.090083584
199	0x3d8ecee4	0.06973055
200	0xbddd73c8	-0.10813099
201	0xbde53ed3	-0.111936234
202	0x3e750005	0.23925789
203	0x3dace929	0.08442909
204	0x3d6d1480	0.05788088
205	0xbd494951	-0.049142186
206	0xbd2445ac	-0.040105507
207	0x3ddf0447	0.10889488
208	0xbd5e99fb	-0.054346066
209	0x3cd779d3	0.026303208
210	0xbde764b6	-0.11298506
211	0x3d945795	0.072432674
212	0xbe2d00d2	-0.16894844
213	0xbe1148b9	-0.14187898
214	0xbc7e5767	-0.015523768
215	0xbdd85c00	-0.105644226
216	0x3e2b8ca4	0.16752869
217	0xbe1f8b31	-0.15580441
218	0xbdb7ab23	-0.089681886
219	0xbd60fb30	-0.05492705
220	0x3e2d6eb0	0.16936755
221	0x3e05578e	0.1302168
222	0xbde454c7	-0.111489825
223	0x3df4f7dd	0.11961339
224	0x3c7b6db5	0.01534598
225	0xbd5d0ddf	-0.053968307
226	0xbcaf0396	-0.021364015
227	0xbe6c2f93	-0.23065023
228	0x3ca375d9	0.019953655
229	0xbd038eb4	-0.032118514
230	0x3d1033cb	0.035205644
231	0xbda76177	-0.08172887
232	0x3d352037	0.044220176
233	0xbe26f1d1	-0.16303183
234	0x3d7b03be	0.061282866
235	0xbe39738b	-0.18110482
236	0x3e6e15a0	0.23250437
237	0x3c9852dd	0.0185942
238	0xbe733a59	-0.23752727
239	0xbe07fb41	-0.1327944
240	0xbe3790bf	-0.1792631
241	0x3d89340d	0.06699381
242	0x3dc62c18	0.09676379
243	0xbe4e8389	-0.20167364
244	0xbe211f45	-0.15734585
245	0xbe1e5285	-0.15461166
246	0xbe05afe9	-0.13055386
247	0x3caf2def	0.021384208
248	0xbd82b552	-0.0638224
249	0x3db6d201	0.08926774
250	0x3d9f63fd	0.07782743
251	0xbcce71b0	-0.025200695
252	0xbd479c56	-0.048733078
253	0x3d7c49e3	0.0615939
254	0x3bdcfa60	0.006743714
255	0xbdbe266a	-0.09284671

fc2.weight f4 [128, 260]
0	0xbd8eb5be	-0.06968258
1	0x3df36c34	0.118858725
2	0x3b431f3f	0.0029773263
3	0xbd1fc4f2	-0.03900618
4	0xbd027add	-0.031855453
5	0xbd5eef88	-0.054427654
6	0xbd476a29	-0.048685227
7	0x3c4917b0	0.012273714
8	0xbdbf32f7	-0.09335893
9	0x3d340e60	0.04395902
10	0xbd7c75f4	-0.061635926
11	0x3dadc7e8	0.08485395
12	0x3ceba965	0.028767297
13	0x3c84d036	0.016212564
14	0x3dc7e0ce	0.09759675
15	0x3c0ac2b5	0.008469273
16	0xbc302e16	-0.010753175
17	0xbd4e9385	-0.050433654
18	0x3d750298	0.059816927
19	0x3db5081d	0.08839438
20	0xbcb70fc3	-0.022346383
21	0x3d35c4ff	0.044377323
22	0xbd8d953f	-0.06913232
23	0x3d101479	0.035175774
24	0xbdb35f45	-0.087584056
25	0x3d861aec	0.06548104
26	0xbd83d442	-0.06436969
27	0x3d55acc2	0.052166708
28	0x3beaf500	0.0071703196
29	0xbda3e3ce	-0.08002435
30	0xb9e80bd5	-0.00044259304
31	0xbc40c240	-0.011765063
32	0x3d3f0ae3	0.04664124
33	0xbcf8aa8b	-0.030354759
34	0x3c857d8d	0.016295219
35	0x3d1818e1	0.0371331
36	0xbc70cf35	-0.0146978395
37	0x3db28ef7	0.08718675
38	0x3d3d3e88	0.046202213
39	0xbdafee9f	-0.08590435
40	0x3cedfd4e	0.02905145
41	0x3d490541	0.049077276
42	0xbdc61429	-0.09671814
43	0xbc3acbca	-0.011401126
44	0xbda8cdd6	-0.08242385
45	0x3d837bc8	0.06420094
46	0xbdbcf9f2	-0.09227361
47	0xbd90c543	-0.07068875
48	0x3d9ed0c8	0.077546656
49	0xbdc2810c	-0.0949727
50	0xbd04e15a	-0.032441474
51	0xbcabc598	-0.020968243
52	0xbc3cef19	-0.011531615
53	0xbcd0c24a	-0.02548327
54	0x3e1b3702	0.15157703
55	0x3d7050df	0.058670875
56	0xbdd25531	-0.10270155
57	0xbe03aab7	-0.12858091
58	0xbd8cf0c9	-0.068818636
59	0x3d094649	0.033514295
60	0x3daaa5ea	0.08332427
61	0x3d901e39	0.070370145
62	0xbd225cb7	-0.0396392
63	0xba8a90ed	-0.0010571756
64	0x3d25d62e	0.04048746
65	0x3ce26567	0.027636243
66	0x3d92deb0	0.071713805
67	0xbdf513fa	-0.11966701
68	0x3c9e42a4	0.019318886
69	0x3e17666c	0.14785165
70	0xbdfa7e00	-0.12231064
71	0xbe13bce3	-0.14427523
72	0x3c18f6da	0.009336198
73	0x3bf0c880	0.00734812
74	0x3de573a2	0.11203696
75	0x3dc44dc8	0.09585148
76	0xbde52e3c	-0.11190459
77	0x3dc2abf4	0.09505454
78	0x3a88600e	0.0010404603
79	0xbddd6b2e	-0.108114585
80	0xbd514097	-0.05108699
81	0xbbb7b810	-0.0056066588
82	0x3db86485	0.090035476
83	0x3ade6e0a	0.001697005
84	0x3d230066	0.0397953
85	0xbd676904	-0.056496635
86	0xbd6ce6ec	-0.05783741
87	0x3db882d5	0.09009329
88	0xbd8359e6	-0.06413631
89	0x3cff9fb7	0.031204088
90	0xb98dff63	-0.00027083894
91	0x3ad4e250	0.0016241763
92	0x3ca793ed	0.020456279
93	0xbc310cee	-0.010806305
94	0xbdf916c1	-0.12162543
95	0x3df9cc67	0.1219719
96	0xbd5d1d33	-0.053982925
97	0x3d841008	0.0644837
98	0x3e01d250	0.12677884
99	0x3d3edc92	0.04659707
100	0x3ded02d7	0.11572807
101	0x3ca4ff28	0.0201412
102	0xbdd566b4	-0.1041998
103	0xbd45bf5a	-0.04827819
104	0xbd87e55b	-0.06635543
105	0xbdd6475a	-0.10462828
106	0x3cac2bde	0.021017011
107	0xbcd1abb2	-0.025594566
108	0xbddc9e0e	-0.10772334
109	0xbc83e9f9	-0.016102778
110	0xbb84d8d4	-0.0040541682
111	0xbe5eb2e0	-0.21747923
112	0x3cfbeb4e	0.03075185
113	0xbd6510e1	-0.0559243
114	0xbe186ea8	-0.14885962
115	0xbc9b6d72	-0.018973086
116	0xbd520e40	-0.05128312
117	0x3d378c11	0.044811312
118	0x3d0e2212	0.03470046
119	0x3b0b2cda	0.002123645
120	0x3c593aef	0.01325868
121	0x3c95dfc2	0.018295173
122	0xbd5412cb	-0.051775735
123	0xbdc2794c	-0.09495792
124	0x3ce3b34e	0.02779546
125	0xbd9510db	-0.072786056
126	0xbd4a5956	-0.049401604
127	0x3cbd002b	0.02307137
128	0x3d4fff86	0.050780796
129	0x3d8f50b8	0.06997818
130	0x3cabb531	0.020960422
131	0x3d9e61b1	0.07733477
132	0x3db370b0	0.08761728
133	0x3d7d76a9	0.06188074
134	0xbdafdbc1	-0.085868366
135	0x3d515d0b	0.051114123
136	0xbd85cc1e	-0.06533073
137	0x3e021a0d	0.1270525
138	0xbde2c0f0	-0.11071956
139	0x3d0885ca	0.033330716
140	0xbd61f4e3	-0.055165183
141	0x3da03ddc	0.07824299
142	0xbdcc17fe	-0.09965514
143	0x3dc01c85	0.0938044
144	0x3b6bc70c	0.0035976795
145	0xbe2cd652	-0.16878632
146	0xbc3456b6	-0.011007002
147	0xbddc939b	-0.10770341
148	0x3c8f648c	0.017504
149	0x3d334377	0.04376551
150	0xbd47f7c1	-0.04882026
151	0xbd984da0	-0.07436681
152	0xb75182b9	-1.2487807e-05
153	0x3e23e0ed	0.16003771
154	0x3d7ef0ff	0.06224155
155	0x3ca386dd	0.019961769
156	0x3b830cdd	0.003999336
157	0xbd821996	-0.063525364
158	0xbdb990cf	-0.09060823
159	0x3dc0c28b	0.09412106
160	0x3cdf9ee1	0.027297439
161	0x3d5ddfd4	0.054168537
162	0x3d5433c4	0.05180718
163	0x3e148b99	0.14506377
164	0x3d23ba5c	0.039972648
165	0xbd95d9cc	-0.07316932
166	0xbc65b12e	-0.014019294
167	0x3c9d1830	0.019176573
168	0xbd3b7074	-0.04576154
169	0xbbfe269d	-0.007756068
170	0xbddcaac6	-0.1077476
171	0x3d615d03	0.055020344
172	0xbcfee433	-0.031114673
173	0xbcfe838e	-0.03106859
174	0xbdadc3ef	-0.08484637
175	0x3d8d298a	0.068926886
176	0x3d0d0bbc	0.03443502
177	0xbdc6ae80	-0.09701252
178	0x3d1e9288	0.03871396
179	0x3d9261bd	0.07147548
180	0xbd117845	-0.03551509
181	0xbd8ef844	-0.06980947
182	0x3d216c33	0.039409827
183	0x3b8338f5	0.0040045925
184	0xbe01b11d	-0.1266522
185	0xbd1fd060	-0.03901708
186	0x3b1d5c09	0.0024011156
187	0x3c84549d	0.016153628
188	0x3d8bb926	0.06822424
189	0x3de53a1e	0.111927256
190	0x3d0c2173	0.034211587
191	0x3d097e4b	0.033567708
192	0xbe0166df	-0.12636898
193	0xbcd8269f	-0.026385603
194	0x3d4c3441	0.04985452
195	0x3c84c394	0.01620654
196	0xbc7401a4	-0.014892969
197	0xbc7b0f13	-0.015323418
198	0xbd2370f0	-0.039902627
199	0xbb60f509	-0.003432574
200	0x3e2e99ad	0.1705081
201	0xbd919612	-0.07108702
202	0xbcb5eb7b	-0.022207012
203	0xbc94e6de	-0.018176492
204	0x3d51a02d	0.051178146
205	0xbcbf5b33	-0.023358917
206	0xbd2f4165	-0.042786974
207	0x3d767450	0.060169518
208	0x3d94efb4	0.07272282
209	0x3d7580ec	0.059937403
210	0x3dfd4aa1	0.1236775
211	0x3d119c32	0.03554935
212	0xbbcfece5	-0.0063453787
213	0xbe3e6def	-0.18596624
214	0xbbcd4245	-0.0062640035
215	0x3d83d807	0.06437688
216	0xbe4069af	-0.18790315
217	0x3e1ae975	0.1512812
218	0x3d255ce1	0.04037178
219	0x3d582c29	0.05277649
220	0xbd8c039f	-0.06836628
221	0x3d8a625b	0.06757041
222	0xbb712505	-0.0036795747
223	0x3cb8b7a5	0.022548506
224	0x3e15fa8d	0.14646359
225	0x3c83fe14	0.016112365
226	0x3d093b7a	0.033503987
227	0x3d8d818e	0.06909476
228	0x3d123ad4	0.035700634
229	0xbc6b3317	-0.0143554425
230	0x3d7da283	0.06192256
231	0x3d0c1584	0.034200206
232	0xbd00873b	-0.031378966
233	0xbc16cd71	-0.0092042545
234	0x3d714336	0.058901988
235	0xbda71b20	-0.081594706
236	0xbc6e5482	-0.014546515
237	0xbb9baeee	-0.004751078
238	0x3dd8a1a5	0.10577706
239	0xbd58a3f1	-0.05289072
240	0x3e07e530	0.13271022
241	0x3d516c0c	0.051128432
242	0xbb951ca5	-0.004550534
243	0x3b542a47	0.0032373832
244	0x3cf63df1	0.030058833
245	0xbe11b9cc	-0.14231032
246	0x3d053e73	0.03253026
247	0x3db74c17	0.0895006
248	0xbd6fd085	-0.05854847
249	0x3d8193dd	0.06327031
250	0xbceabbde	-0.028654035
251	0x3dfc1eb7	0.12310546
252	0x3da7e786	0.081984565
253	0x3d868507	0.06568342
254	0x3cad9c8a	0.021192808
255	0x3d9ed26c	0.077549785

fc2.bias f4 [128]
0	0xbde02e24	-0.109463006
1	0x3dfd4df1	0.12368382
2	0xbd2c579d	-0.042075742
3	0x3e1ebacd	0.15500946
4	0x3e0ef2ec	0.13959855
5	0xbdd37c9c	-0.10326502
6	0xbdf67a29	-0.12035019
7	0x3dd86dc3	0.105678104
8	0xbda95498	-0.08268088
9	0x3cc64547	0.024202956
10	0xbcbd7a0e	-0.02312949
11	0x3cb94870	0.022617549
12	0x3b522617	0.003206616
13	0x3dcaee2d	0.0990871
14	0xbd982998	-0.074298084
15	0xbc7a03b1	-0.015259669
16	0xbb22ede0	-0.0024861023
17	0x3ddb4a3a	0.10707517
18	0x3dd2baee	0.1028956
19	0x3c6772c1	0.014126481
20	0x3b9fc33e	0.0048755696
21	0x3e82db4b	0.25557932
22	0x3cb55ea7	0.02213986
23	0xbd143555	-0.036183674
24	0x3e022909	0.12710966
25	0xbc943bb9	-0.018094884
26	0xbe03c966	-0.12869796
27	0xbad49459	-0.0016218527
28	0xbc82cb24	-0.015966006
29	0x3d93a5c9	0.072093554
30	0xbdaefb85	-0.08544067
31	0x3e22fae0	0.15916014
32	0xbd94b97b	-0.0726194
33	0xbd86c046	-0.06579642
34	0xbdbcca98	-0.09218329
35	0xbc52e240	-0.012871325
36	0x3dd4d20d	0.103916265
37	0x3cc3d41e	0.023904856
38	0x3ce0ba7d	0.027432675
39	0x3cd01259	0.025399374
40	0x3e111e39	0.14171685
41	0xbdadf151	-0.08493293
42	0xbdde8933	-0.108660124
43	0x3d9d16ff	0.07670402
44	0xbc6bac2b	-0.01438431
45	0x3c36906b	0.01114283
46	0x3cdea823	0.027179783
47	0x3cb52285	0.022111187
48	0x3d1251eb	0.035722654
49	0xbd5ec4fc	-0.054387078
50	0xbd8590a9	-0.06521732
51	0x3e67a019	0.22619666
52	0xbd0dbcd7	-0.03460392
53	0x3df06501	0.11738015
54	0xbd311f6a	-0.04324285
55	0xbc4b99af	-0.012426778
56	0xbdcce974	-0.10005465
57	0x3d823ade	0.06358884
58	0x3d457337	0.04820558
59	0xbe0c2ab5	-0.13688166
60	0x3b8a4dad	0.0042206855
61	0xbe0da511	-0.13832499
62	0x3e21022a	0.15723482
63	0xbdc1d182	-0.094637886
64	0x3e26e3a2	0.16297773
65	0xbd4dbff7	-0.0502319
66	0xbdbe33d7	-0.092872314
67	0xbdfa619d	-0.122256495
68	0x3c5739c4	0.013136331
69	0xbdfcf2b4	-0.123509794
70	0x3cdd8edf	0.027045665
71	0xbd36c1c8	-0.044618398
72	0x3dacdaac	0.08440146
73	0x3e36ae78	0.17839992
74	0xbd2b6cae	-0.041851692
75	0xbe4e4665	-0.20144041
76	0xbd625149	-0.0552533
77	0x3dee9ad6	0.11650626
78	0x3e1e8dc1	0.15483762
79	0x3e3fba53	0.18723421
80	0x3cafb147	0.021446837
81	0x3d781ed5	0.06057628
82	0xbdad31dc	-0.084567755
83	0xbd02d4cf	-0.03194123
84	0xbc751e60	-0.014960855
85	0xbdd74086	-0.10510354
86	0x3d4b2207	0.049592998
87	0x3e3a8911	0.18216349
88	0x3d6095f6	0.054830514
89	0x3d80f113	0.06295981
90	0xbc9e5ab8	-0.019330367
91	0x3d07a154	0.03311284
92	0x3def594d	0.11686955
93	0xbd86c54e	-0.06580602
94	0x3c9138f5	0.017727355
95	0x3c8b920a	0.01703741
96	0x3e198651	0.14992644
97	0x3db0fd34	0.08642045
98	0x3d5762ce	0.052584462
99	0xbcf0dba2	-0.029401604
100	0x3e03208b	0.12805383
101	0x3cd6b423	0.026208943
102	0xbdc1b915	-0.0945913
103	0x3c4ba8ee	0.012430413
104	0xbdd84491	-0.10559953
105	0x3e002b43	0.12516503
106	0x3d977435	0.073952116
107	0xbcd34b07	-0.025792612
108	0x3cb7c829	0.022434311
109	0xbd25ed3a	-0.04050944
110	0xbdd63235	-0.10458795
111	0x3d383590	0.044972956
112	0x3db13804	0.08653262
113	0x3d8509aa	0.06495984
114	0x3dcf72d4	0.101293236
115	0x3e0ff2be	0.14057443
116	0xbd954b05	-0.072896995
117	0xbc49bc13	-0.012312907
118	0xbde596cf	-0.11210405
119	0xbcc1c6d2	-0.023654375
120	0x3d2dacfc	0.0424013
121	0x3d023c63	0.03179587
122	0x3e05fd9e	0.13085029
123	0x3c4f550a	0.012654552
124	0x3d04cf01	0.032423977
125	0xbde6f451	-0.112770684
126	0xbd1b145d	-0.037861217
127	0x3d2fa3a5	0.042880673

fc3.weight f4 [1, 128]
0	0xbdf93714	-0.121687084
1	0x3dcd7f17	0.10034006
2	0xbd72a3f1	-0.059238378
3	0x3d97b26b	0.074070774
4	0x3de661e4	0.1124914
5	0xbdf5a067	-0.11993485
6	0xbdc503cc	-0.09619865
7	0x3e3726c8	0.17885888
8	0xbe175e7b	-0.14782135
9	0xbdc41bb3	-0.09575596
10	0xbe00ad11	-0.1256602
11	0xbe059a3a	-0.13047114
12	0xbe4355bf	-0.19075678
13	0x3e060242	0.13086799
14	0xbe204844	-0.15652567
15	0xbde69464	-0.11258772
16	0xbd8c5db8	-0.06853813
17	0x3dce3c41	0.10070086
18	0x3e32880b	0.17434709
19	0xbe17e6ad	-0.1483409
20	0xbdf6ebb1	-0.12056673
21	0x3ddaf4d3	0.10691228
22	0xbe162f37	-0.14666449
23	0xbe26c282	-0.16285136
24	0x3e031a96	0.1280311
25	0xbdb47b26	-0.08812551
26	0xbe18d9f2	-0.1492689
27	0x3ebba332	0.36647946
28	0xbe161498	-0.14656293
29	0x3dc299dd	0.09502003
30	0xbe4b3277	-0.1984347
31	0x3dc5ad61	0.0965221
32	0xbe3343f5	-0.17506392
33	0xbe60abbb	-0.2194051
34	0xbe463bb1	-0.19358708
35	0xbea97461	-0.33096603
36	0x3e20266c	0.15639657
37	0x3e343711	0.17599131
38	0x3e58da8a	0.21177116
39	0x3dd9cb19	0.10634441
40	0x3dcbd7e5	0.09953288
41	0xbe9dd926	-0.30829734
42	0xbe2c3c74	-0.16819936
43	0x3e2e8946	0.17044553
44	0xbdd2c8d6	-0.10292213
45	0xbdfd5db9	-0.12371392
46	0xbe4426b1	-0.19155385
47	0xbe0c6898	-0.13711774
48	0x3e2a07f4	0.16604596
49	0xbe159116	-0.14606127
50	0xbe097c08	-0.1342622
51	0x3dd33d9c	0.103144854
52	0xbdd8c96f	-0.105852954
53	0x3dfd3cb1	0.123650916
54	0xbe265aa5	-0.16245516
55	0xbdf504ae	-0.11963783
56	0xbd9fbed6	-0.07800071
57	0x3e6a5562	0.22884133
58	0x3e656ed5	0.2240556
59	0xbd9f6c06	-0.07784276
60	0x3e0bb5ca	0.13643566
61	0xbd84442f	-0.064583175
62	0x3e14a8a2	0.14517453
63	0xbe192eb2	-0.14959219
64	0x3dc86040	0.09783983
65	0xbdfcb1e5	-0.12338618
66	0xbda5e775	-0.081007876
67	0xbe818a50	-0.25300837
68	0xbe0cf098	-0.13763654
69	0xbddb8543	-0.10718777
70	0x3e0ede7f	0.13952063
71	0xbda79737	-0.08183139
72	0x3e9ca2d7	0.30592987
73	0x3dcc1779	0.099654146
74	0xbe04db80	-0.12974358
75	0xbe4f1b42	-0.20225242
76	0xbda5ad5b	-0.080897056
77	0x3df0f95d	0.11766312
78	0x3dc490c8	0.09597927
79	0x3da81c0c	0.082084745
80	0x3e73cfbe	0.23809716
81	0x3d8eb9dd	0.06969044
82	0xbddff56a	-0.10935481
83	0xbdce5bed	-0.10076127
84	0xbd3e3f5e	-0.04644715
85	0xbdc982f5	-0.09839431
86	0x3e6bad4c	0.23015326
87	0x3ddb0345	0.10693983
88	0x3e1988b8	0.1499356
89	0x3eb2fef2	0.34960133
90	0xbe962414	-0.293244
91	0x3dc510e5	0.09622363
92	0x3dbddbf7	0.092704706
93	0xbe0d8560	-0.1382041
94	0x3e0aaad2	0.13541725
95	0x3e86a6af	0.26299044
96	0x3e3e9d6e	0.18614742
97	0x3e013fd4	0.12622005
98	0x3e85d486	0.26138705
99	0xbe2c28ba	-0.16812411
100	0x3e36c5a3	0.1784883
101	0x3e051495	0.12996133
102	0xbdd83dd7	-0.1055867
103	0x3e02e5ab	0.12782924
104	0xbdf89153	-0.121370934
105	0x3e06e262	0.13172296
106	0x3e81ff83	0.25390252
107	0xbe42d491	-0.190264
108	0x3e30ca19	0.17264594
109	0xbe241c0a	-0.16026321
110	0xbe3121ff	-0.17298125
111	0x3e39168c	0.18075007
112	0x3e68e152	0.22742203
113	0x3e5edde4	0.21764332
114	0x3e122db4	0.14275247
115	0x3dbbf3bb	0.09177347
116	0xbe4d497a	-0.2004756
117	0xbdf955cc	-0.121745676
118	0xbe18ec1d	-0.1493382
119	0xbe0fcd9b	-0.14043276
120	0x3e5fd4f7	0.21858583
121	0x3e5a2867	0.21304475
122	0x3e19dec0	0.15026379
123	0xbdf4870f	-0.11939823
124	0x3e3a11c8	0.18170846
125	0xbe44524d	-0.1917202
126	0xbe167041	-0.14691259
127	0x3e2ffdaa	0.17186609
