cache/checkpoint_1_actor.pth (torch, 172292 bytes, 10 tensors)

bn1.weight f4 [33]
1.3507881 1.0676509 1.4556043 0.23469615 0.3952975 0.47845927 0.47024098 0.18257955
0.31231412 0.3518014 0.5509621 0.42102996 0.6835592 1.975421 1.3590213 1.9757955
1.0127907 0.9110792 0.96203953 1.2671529 0.38710293 0.36665878 0.30852845 1.3638581
0.7948008 1.364218 2.0362992 1.0 2.2011569 1.0 1.0 1.0
2.451602
00000000: a0e6 ac3f c9a8 883f 3e51 ba3f 3054 703e
00000010: 6f64 ca3e 9df8 f43e 6dc3 f03e 22f6 3a3e
00000020: a3e7 9f3e 501f b43e da0b 0d3f 3d91 d73e
00000030: bcfd 2e3f 98da fc3f 69f4 ad3f dee6 fc3f
00000040: 20a3 813f 7d3c 693f 3948 763f 1132 a23f
00000050: 5b32 c63e b3ba bb3e 71f7 9d3e e792 ae3f
00000060: 1178 4b3f b29e ae3f ba52 0240 0000 803f
00000070: c1df 0c40 0000 803f 0000 803f 0000 803f
00000080: 0ce7 1c40

bn1.bias f4 [33]
-0.024965016 -0.19475426 0.038880855 0.20415209 -0.08755186 -0.0041367337 0.05239078 -0.25709966
0.09154368 -0.14466786 -0.20889224 -0.095111206 0.15962039 -0.09981786 0.10601854 0.049099747
-0.06250152 0.07121471 0.06845863 0.055769477 -0.24009185 -0.025395213 -0.056044023 -0.070316166
0.037887856 0.12683906 0.0532528 0.307005 0.10025055 0.9314936 1.2113595 -0.77570516
0.0829715
00000000: 6f83 ccbc a96d 47be 8841 1f3d 3f0d 513e
00000010: 644e b3bd 708d 87bb b797 563d 91a2 83be
00000020: 417b bb3d d023 14be d9e7 55be aac9 c2bd
00000030: 8773 233e 4e6d ccbd 4020 d93d d11c 493d
00000040: cc00 80bd 05d9 913d 0a34 8c3d 896e 643d
00000050: a3da 75be 9f09 d0bc 6b8e 65bd ec01 90bd
00000060: 4c30 1b3d 19e2 013e 9c1f 5a3d c22f 9d3e
00000070: 2950 cd3d 5d76 6e3f d40d 9b3f 9d94 46bf
00000080: f6ec a93d

bn1.running_mean f4 [33]
0.68208236 -2.871387 -0.00019115696 0.9179411 0.08543945 0.003012638 -0.002460221 0.008381991
-0.0074345595 0.0056634084 0.017993357 0.010459448 -0.023766018 0.28579384 -3.036865 0.45156223
0.04386091 0.035925247 0.12542681 0.4762782 0.020160904 0.025698708 0.0056987866 0.015491378
0.124170855 -0.017907372 -0.042742763 -0.99999976 0.090233974 0.0 0.99999976 0.0
-0.024143837
00000000: f39c 2e3f cec4 37c0 4e71 48b9 30fe 6a3f
00000010: e1fa ae3d ae6f 453b a93b 21bb 9e54 093c
00000020: 9b9d f3bb 1d94 b93b ce66 933c 1b5e 2b3c
00000030: f4b0 c2bc 9253 923e ff5b 42c0 2a33 e73e
00000040: 7fa7 333d 5a26 133d e36f 003e bcda f33e
00000050: 7b28 a53c 1986 d23c e3bc ba3b 8ccf 7d3c
00000060: 4a4d fe3d 7bb2 92bc 0913 2fbd fcff 7fbf
00000070: 97cc b83d 0000 0000 fcff 7f3f 0000 0000
00000080: 4cc9 c5bc

bn1.running_var f4 [33]
2.7878509 0.30213138 4.2435966 0.012321148 0.045305863 0.0046743443 0.08772258 0.18274727
0.036558505 0.07020276 1.4297594 0.54875237 1.8622326 15.007498 1.1508147 20.381414
0.074192435 0.14673512 0.0762262 0.45741072 1.2199407 0.40053907 0.3227958 5.9528756
2.2945414 7.9580173 31.458004 6e-45 32.503674 6e-45 6e-45 6e-45
0.32963198
00000000: 266c 3240 f7b0 9a3e 8bcb 8740 a4de 493c
00000010: a492 393d 3e2b 993b e5a7 b33d 1a22 3b3e
00000020: 5fbe 153d 77c6 8f3d 5b02 b73f 097b 0c3f
00000030: a35d ee3f b61e 7041 e54d 933f 230d a341
00000040: 34f2 973d bb41 163e 7b1c 9c3d bd31 ea3e
00000050: 0427 9c3f 7513 cd3e 7e45 a53e f57d be40
00000060: c4d9 1240 14a8 fe40 fea9 fb41 0400 0000
00000070: c303 0242 0400 0000 0400 0000 0400 0000
00000080: 86c5 a83e

fc1.weight f4 [256, 33]
0.022400323 0.1751408 -0.041847534 -0.21001063 -0.05634048 -0.06838806 0.2952929 0.18710838
-0.21473518 -0.29093733 0.31695104 -0.19795656 -0.06682079 0.25825664 -0.22488283 0.025780892
-0.045944996 -0.0033345458 -0.22355632 0.03625417 0.20721187 -0.19913654 -0.14463 -0.023318216
-0.14324659 0.11884037 0.15528375 -0.37291506 -0.31621715 -0.43951818 -0.40653357 0.44387627
0.5637057 0.006122085 -0.013405992 -0.09278266 0.11415721 0.09487157 -0.2526993 -0.108532816
0.23765586 -0.051564183 0.03712723 0.07027809 0.15208673 0.033920776 0.25144458 0.16040657
0.20474868 0.08789596 0.26573172 0.26810795 0.19275822 -0.037580594 -0.16255955 -0.24075156
0.3927191 0.23700519 0.34412494 0.2949464 -0.2488112 -0.027595246 -0.21708676 -0.17911437
0.21418935 0.01527521 -0.24033432 0.08124216 0.070253246 -0.15784216 0.14026937 -0.14867637
0.030398443 0.35254914 0.120722584 0.30447847 -0.13106169 0.030428475 -0.05098831 -0.01169812
-0.036284417 -0.169691 0.044203814 0.29168862 -0.18992467 0.25633892 -0.27221704 0.13231617
0.08153584 0.025876237 -0.13258636 -0.00616493 0.112740256 -0.36117256 0.2881371 -0.2997184
-0.5035928 0.3739242 -0.69716984 -0.19852835 -0.19562967 -0.12525073 -0.26569918 0.023753822
-0.021086771 0.17080349 0.15640286 0.03020211 -0.11953236 0.023221934 -0.12342505 -0.06097218
0.052292127 -0.0039332486 0.29175964 -0.22006848 0.13041846 0.46256325 -0.6700072 0.01902019
0.092740804 -0.027474659 0.01373937 0.07308022 0.12595356 -0.09625453 -0.11511826 -0.25771365
-0.14648627 -0.15910867 0.18738607 0.025305372 -0.18388075 0.027278248 0.05402001 -0.07733441
0.13828623 0.06191289 0.20880185 -0.10079343 0.08530103 0.061291557 -0.108597495 -0.0665677
0.21392666 0.3838834 0.0679202 -0.180425 -0.39971927 -0.4414279 -0.37884828 0.40420282
0.043119572 -0.24052598 0.089960076 0.15551619 0.047892027 -0.2836257 -0.19229147 -0.03014232
0.012691686 -0.07133988 -0.0998635 0.022003 0.08815543 -0.25275832 0.22065134 -0.069479145
-0.10317711 -0.29657882 -0.11392654 0.11686688 0.021857774 -0.18238267 -0.10211971 -0.15899219
0.052268945 0.21045838 -0.2238819 0.5345885 0.10352659 -0.110737815 0.19827324 -0.34870362
-0.17946826 -0.017046304 0.069609225 0.21509169 -0.47450638 0.6809269 0.1380597 -0.0031832277
-0.5047291 -0.2987097 -0.6332846 -0.653711 0.63133186 0.07114823 -0.19818537 -0.59590256
0.1493286 -0.021730965 -0.15596582 0.020592755 -0.00034049564 0.17902319 -0.22391826 -0.20360796
-0.051244386 0.17631683 -0.22881863 -0.007104729 0.53350157 -0.10818333 0.049102515 -0.07068153
0.19218178 0.00075422024 0.0067388467 0.118209325 -0.012084921 -0.052401695 0.2152306 -0.38042578
-0.28288266 -0.34568024 0.3236061 -0.39076492 -0.415903 0.36142638 -0.38087234 -0.050465215
-0.29827797 -0.19290075 -0.24361898 -0.041643556 0.28656664 0.0090444535 0.18410736 0.011876741
0.057608966 -0.039642584 -0.25850543 -0.096609734 0.069840394 0.2575398 0.041355446 0.0059367986
0.3315908 0.02098818 -0.32800937 0.14851034 0.06787901 0.20549393 -0.3571941 0.12954268
00000000: e280 b73c 1c58 333e 5268 2bbd 070d 57be
00000010: 46c5 66bd 0a0f 8cbd a230 973e 5799 3f3e
00000020: 8ae3 5bbe bdf5 94be 6847 a23e 20b5 4abe
00000030: 57d9 88bd 373a 843e af47 66be 7332 d33c
00000040: d230 3cbd 6588 5abb f3eb 64be 417f 143d
00000050: 592f 543e 73ea 4bbe e319 14be d805 bfbc
00000060: 3caf 12be 9462 f33d b402 1f3e b9ee bebe
00000070: 37e7 a1be 8708 e1be 2b25 d0be c043 e33e
00000080: 044f 103f c59b c83b cea4 5bbc d604 bebd
00000090: 41cb e93d 074c c23d cd61 81be 7446 debd
000000a0: 0f5c 733e f734 53bd b912 183d f6ed 8f3d
000000b0: a0bc 1b3e 83f0 0a3d 58bd 803e 9f41 243e
000000c0: a3a9 513e cc02 b43d fd0d 883e 7245 893e
000000d0: 6962 453e 1cee 19bd 0376 26be 9487 76be
000000e0: 7a12 c93e 7db1 723e 2531 b03e 3703 973e
000000f0: 5dc8 7ebe 6d0f e2bc fe4b 5ebe c269 37be
00000100: 7454 5b3e e044 7a3c 331a 76be 4a62 a63d
00000110: efe0 8f3d 60a1 21be c6a2 0f3e 9e3e 18be
00000120: 2806 f93c 5281 b43e 673d f73d 9ae4 9b3e
00000130: 0935 06be 2345 f93c 1ed9 50bd 79a9 3fbc
00000140: f89e 14bd 7ac3 2dbe 0f0f 353d 3658 953e
00000150: 9d7b 42be db3e 833e 0860 8bbe e47d 073e
00000160: 43fc a63d 67fa d33c b8c4 07be 2e03 cabb
00000170: 5de4 e63d 9ceb b8be b586 933e b174 99be
00000180: 75eb 00bf fe72 bf3e b979 32bf 044b 4bbe
00000190: 2553 48be ba41 00be b909 88be 6097 c23c
000001a0: 2abe acbc 1ce7 2e3e 1228 203e 6a6a f73c
000001b0: 62cd f4bd ed3b be3c 46c6 fcbd f7bd 79bd
000001c0: 4530 563d 7be2 80bb 8561 953e a259 61be
000001d0: 6b8c 053e 17d5 ec3e 9885 2bbf 3bd0 9b3c
000001e0: e4ee bd3d 8912 e1bc 181b 613c 15ab 953d
000001f0: f8f9 003e 1821 c5bd 1fc3 ebbd 0bf3 83be
00000200: 7f00 16be 62ed 22be 22e2 3f3e 364d cf3c
00000210: 3c4b 3cbe a276 df3c 1644 5d3d 8161 9ebd
00000220: e89a 0d3e 5f98 7d3d 27d0 553e c96c cebd
00000230: 4eb2 ae3d db0c 7b3d 5d68 debd a554 88bd
00000240: 970f 5b3e 5d8c c43e bf19 8b3d 55c1 38be
00000250: 01a8 ccbe d602 e2be 67f8 c1be acf3 ce3e
00000260: 269e 303d 714c 76be fd3c b83d a33f 1f3e
00000270: 6e2a 443d 6337 91be 0ee8 44be 07ed f6bc
00000280: caf0 4f3c a51a 92bd 3c85 ccbd a33f b43c
00000290: d68a b43d 8a69 81be 6df2 613e 154b 8ebd
000002a0: 854e d3bd 2ed9 97be 5152 e9bd e757 ef3d
000002b0: 130f b33c 86c2 3abe 2324 d1bd d9ce 22be
000002c0: f617 563d 6782 573e 4c41 65be cbda 083f
000002d0: c005 d43d 82ca e2bd 2408 4b3e 4889 b2be
000002e0: 87c6 37be b1a4 8bbc 488f 8e3d ff40 5c3e
000002f0: 80f2 f2be 3a51 2e3f 865f 0d3e b39d 50bb
00000300: ed35 01bf 7af0 98be f11e 22bf 9b59 27bf
00000310: f79e 213f 2ab6 913d 1bf1 4abe 128d 18bf
00000320: 99e9 183e 2305 b2bc 81b5 1fbe 23b2 a83c
00000330: 8d84 b2b9 db51 373e d44a 65be 9b7e 50be
00000340: a2e5 51bd 668c 343e 6e4f 6abe c9ce e8bb
00000350: 8f93 083f 398f ddbd b81f 493d 7ac1 90bd
00000360: 4dcb 443e ddb6 453a 8bd1 dc3b bb17 f23d
00000370: d5ff 45bc 29a3 56bd 6965 5c3e 2bc7 c2be
00000380: ffd5 90be 00fd b0be b3af a53e 5712 c8be
00000390: 3df1 d4be e10c b93e b301 c3be 9db4 4ebd
000003a0: e4b7 98be c687 45be 4177 79be 6f92 2abd
000003b0: ddb8 923e 302f 143c a486 3c3e aa96 423c
000003c0: 61f7 6b3d 4360 22bd d35a 84be 53db c5bd
000003d0: 7b08 8f3d 42dc 833e 5464 293d 7a89 c23b
000003e0: 45c6 a93e 67ef ab3c d8f0 a7be 1813 183e
000003f0: 2704 8b3d 006d 523e 25e2 b6be d6a6 043e

fc1.bias f4 [256]
-0.49311095 -0.3410381 -0.32005534 -0.11196493 0.15645228 -0.5869109 -0.35210478 -0.15958403
-0.26370925 0.027016414 -0.43907472 -0.38620514 -0.2160663 -0.30066147 -0.47131562 -0.23839538
-0.49082738 -0.23410873 -0.2009902 -0.17566454 -0.07857138 -0.07046634 -0.17638429 -0.25743818
-0.5332438 -0.20756832 -0.30505118 -0.22700885 -0.042111866 -0.00019707788 -0.3603103 -0.37292442
-0.17343262 -0.077278964 -0.5773159 -0.57761616 -0.31342018 -0.2643892 -0.276559 -0.027650617
-0.42001238 -0.3372442 -0.17194985 -0.30592933 -0.0546259 -0.5563919 -0.1388843 -0.38284537
-0.018620465 -0.38713863 -0.58896655 -0.23844342 -0.24751423 -0.24821226 -0.10927748 -0.0524143
-0.39313662 -0.16531265 -0.2785647 -0.28095126 -0.10150911 -0.2544401 -0.44052354 -0.22568797
-0.40621355 -0.40755814 -0.31442356 -0.19624043 -0.23122212 -0.41805348 -0.3025933 -0.48005265
-0.3273302 0.008912592 0.08019802 -0.009098636 -0.28538424 -0.12174173 -0.45774606 -0.3547834
-0.16809995 -0.23908585 -0.43569446 -0.109429605 -0.12740478 -0.66152024 -0.14364593 -0.30484432
-0.35397378 -0.26576787 -0.084059626 -0.26418507 -0.3243528 -0.18114462 -0.21499723 -0.21861391
-0.40732405 -0.18811746 -0.2518198 -0.33509734 -0.17157134 -0.11707395 -0.58631957 -0.40663156
-0.51012903 0.05898447 -0.3101954 0.1416911 -0.0994752 0.018741507 -0.04949445 0.08857172
-0.29928145 -0.42846522 -0.3386609 -0.30191982 -0.33352563 -0.3317765 0.09941707 0.006186386
-0.15089333 -0.25779468 -0.099902324 -0.1753758 -0.075948276 -0.14911732 -0.38501322 -0.22035338
-0.22978856 -0.604804 -0.21271501 -0.3631787 -0.1412585 -0.22011583 -0.29333574 -0.5564219
-0.09059213 -0.10654464 -0.36145866 -0.32427335 -0.283613 0.018436752 0.024683068 -0.295319
-0.024224652 -0.25560763 -0.088055655 -0.3744133 -0.34919786 -0.21058516 -0.30061045 -0.30848268
-0.3844155 -0.3535634 -0.06883368 -0.35193452 -0.75024205 -0.34278145 -0.05441029 -0.17785914
-0.35977548 -0.5332496 -0.49446148 -0.20176643 -0.045366783 -0.096433215 -0.021518186 -0.07243462
-0.1406681 -0.35887936 -0.21593852 -0.29187757 -0.43793097 -0.11907868 -0.29885054 -0.2576339
-0.18904944 -0.14585847 -0.4399269 0.06887804 0.0025289226 0.12595917 -0.20512077 -0.45834908
-0.34029993 -0.019473476 -0.20234421 -0.18424512 -0.1993614 0.04945132 -0.1370868 -0.30818823
-0.18575953 -0.12152613 -0.26138493 0.015963562 -0.13965863 -0.18516128 -0.3998109 -0.28851086
-0.049561754 -0.40463033 -0.26911828 -0.24967578 -0.28573203 -0.03199501 -0.33062094 -0.06432267
-0.42961302 -0.1446929 -0.35827222 -0.2137265 -0.27138236 -0.2535066 -0.27745783 -0.30453658
0.005722963 -0.1944158 -0.2363784 -0.4632803 -0.068544134 -0.19795893 -0.15440817 0.052326687
-0.14717188 -0.48996237 -0.18442973 -0.19420823 0.07117839 -0.29904386 -0.19860117 -0.33802313
-0.16038169 -0.2520878 -0.19159782 -0.52638096 -0.08178573 -0.10061183 -0.19611447 -0.10006832
-0.59634584 -0.19232418 -0.004016194 -0.47634685 -0.3494031 0.10468928 -0.27132422 -0.17237753
-0.330488 -0.4436803 -0.014294271 -0.01996865 -0.40710652 0.08149606 -0.021737708 -0.2755438
00000000: 0a79 fcbe 8c9c aebe 4bde a3be df4d e5bd
00000010: 0735 203e cb3f 16bf 1447 b4be ff69 23be
00000020: e604 87be 8751 dd3c 67ce e0be aebc c5be
00000030: 7c40 5dbe 4df0 99be 4850 f1be eb1d 74be
00000040: ba4d fbbe 33ba 6fbe 60d0 4dbe 68e1 33be
00000050: 08ea a0bd a850 90bd 159e 34be f0ce 83be
00000060: aa82 08bf ca8c 54be ab2f 9cbe 0275 68be
00000070: 7e7d 2cbd b1a6 4eb9 977a b8be f3ef bebe
00000080: 5298 31be 6f44 9ebd faca 13bf a7de 13bf
00000090: 9c78 a0be 055e 87be 2499 8dbe 8c83 e2bc
000000a0: dd0b d7be 46ab acbe 9f13 30be c5a2 9cbe
000000b0: 68bf 5fbd b36f 0ebf b037 0ebe 4f04 c4be
000000c0: f289 98bc 0937 c6be 83c6 16bf 832a 74be
000000d0: 5f74 7dbe 5b2b 7ebe dfcc dfbd 61b0 56bd
000000e0: 3449 c9be b847 29be 08a0 8ebe d8d8 8fbe
000000f0: 02e4 cfbd f945 82be 4d8c e1be bf1a 67be
00000100: 39fb cfbe 76ab d0be 20fc a0be 40f3 48be
00000110: 7ec5 6cbe 1b0b d6be 82ed 9abe 76c9 f5be
00000120: d397 a7be 1f06 123c dc3e a43d 7212 15bc
00000130: e21d 92be ba53 f9bd b15d eabe 2ba6 b5be
00000140: 6522 2cbe ecd2 74be 5813 dfbe a11c e0bd
00000150: 6676 02be 6459 29bf eb17 13be 8e14 9cbe
00000160: 0d3c b5be ba12 88be 7427 acbd 4443 87be
00000170: 9211 a6be fa7d 39be 3c28 5cbe 53dc 5fbe
00000180: c78c d0be dda1 40be 86ee 80be e191 abbe
00000190: 66b0 2fbe 78c4 efbd 0a19 16bf 0332 d0be
000001a0: d197 02bf b399 713d eed1 9ebe 7917 113e
000001b0: a7b9 cbbd ca87 993c b1ba 4abd 1765 b53d
000001c0: 6b3b 99be cb5f dbbe f664 adbe 3c95 9abe
000001d0: dfc3 aabe 9cde a9be 2d9b cb3d 2bb7 ca3b
000001e0: c883 1abe aafd 83be 9799 ccbd b795 33be
000001f0: c58a 9bbd 36b2 18be 7420 c5be 51a4 61be
00000200: b14d 6bbe 6fd4 1abf f7d1 59be 8ff2 b9be
00000210: 11a6 10be 0b66 61be 1a30 96be aa71 0ebf
00000220: 5e88 b9bd 1434 dabd 1c11 b9be 2807 a6be
00000230: b935 91be ac08 973c 2534 ca3c 0d34 97be
00000240: c772 c6bc 01df 82be 8656 b4bd 1ab3 bfbe
00000250: 10ca b2be a3a3 57be 9de9 99be 71f1 9dbe
00000260: 1cd2 c4be 4306 b5be acf8 8cbd c330 b4be
00000270: dd0f 40bf 0d81 afbe 53dd 5ebd b520 36be
00000280: 7e34 b8be 0c83 08bf 0e2a fdbe dc9b 4ebe
00000290: 85d2 39bd c77e c5bd e846 b0bc 9a58 94bd
000002a0: 4c0b 10be 09bf b7be fd1e 5dbe fa70 95be
000002b0: 7d38 e0be 86df f3bd f002 99be 97e8 83be
000002c0: 2d96 41be ec5b 15be 193e e1be ee0f 8d3d
000002d0: 48bc 253b 71fb 003e 2e0b 52be bbac eabe
000002e0: cb3b aebe d786 9fbc 5233 4fbe c1aa 3cbe
000002f0: 6525 4cbe 788d 4a3d 7b60 0cbe d9ca 9dbe
00000300: bf37 3ebe b1e2 f8bd 3fd4 85be 04c6 823c
00000310: ac02 0fbe eb9a 3dbe 04b4 ccbe b2b7 93be
00000320: 4401 4bbd b52b cfbe dfc9 89be 02ab 7fbe
00000330: 784b 92be 330d 03bd 2647 a9be 9bbb 83bd
00000340: 3df6 dbbe 602a 14be 756f b7be 1fdb 5abe
00000350: a1f2 8abe 9ecb 81be f40e 8ebe 38ec 9bbe
00000360: b187 bb3b ef14 47be 2e0d 72be 1333 edbe
00000370: de60 8cbd bfb5 4abe 2d1d 1ebe 8254 563d
00000380: 3ab4 16be 59dc fabe 26db 3cbe 86de 46be
00000390: fac5 913d 471c 99be 1b5e 4bbe 5e11 adbe
000003a0: 193b 24be a711 81be 3832 44be e7c0 06bf
000003b0: 477f a7bd 930d cebd 3bd2 48be 9ff0 ccbd
000003c0: 1faa 18bf a1f0 44be 479a 83bb bce3 f3be
000003d0: f7e4 b2be 5567 d63d 02eb 8abe bc83 30be
000003e0: b935 a9be 102a e3be 8532 6abc 4b95 a3bc
000003f0: 4470 d0be 68e7 a63d 4713 b2bc 1414 8dbe

fc2.weight f4 [128, 256]
-0.014187619 -0.0859343 -0.50819325 0.017753275 -0.053452667 -0.23127696 -0.18580475 0.24203937
0.20201135 0.12798952 -0.19715956 0.084630646 -0.13929474 -0.21733804 0.057623047 -0.5829395
-0.121727325 -0.522038 -0.16276531 -0.4625803 0.36353114 0.06274268 0.13974924 0.087365866
0.043999866 -0.24832179 0.1887049 -0.30666226 -0.35882387 0.275123 0.009007279 -0.3321897
0.15269893 0.10353917 -0.31134608 -0.14182188 0.18447228 0.30233282 0.10691036 0.0069278595
-0.3614061 -0.40543476 0.015199729 0.11287009 -0.5241043 -0.418446 -0.043037813 -0.21992357
0.0853021 0.11259993 -0.3082988 -0.30350003 -0.10571225 0.31203088 -0.053944234 0.1481381
0.34586674 0.3367856 -0.022287406 -0.30738163 -0.11600447 0.1342507 0.08415257 -0.080678605
0.1491911 -0.12218049 0.23125687 -0.3409326 -0.23628263 0.08789166 0.38846618 -0.065344095
0.050669678 0.26541302 0.18427734 0.13606629 0.03502347 -0.6334657 0.15485446 -0.022929901
-0.20436233 0.28446943 -0.47341964 0.20402612 0.53085655 0.72731614 -0.21232232 -0.14113931
0.09835278 0.15696606 0.11162979 -0.23072313 -0.19656304 0.10918763 -0.0058602174 0.027828148
-0.24778597 0.29744774 -0.36353225 0.4347737 0.10682662 0.10605853 0.007884198 0.0058240704
0.09442425 0.064278774 0.082786314 0.19089703 -0.08836292 -0.28081968 0.07371521 -0.1984159
0.18208899 -0.048172478 -0.22327544 0.4133331 -0.23686722 -0.3401272 -0.21858022 -0.06650109
0.18175493 0.2819039 0.17496541 -0.2583238 0.33947465 0.09803743 0.07883184 0.17557327
0.376415 -0.12127619 0.13065563 -0.48222256 -0.085654065 0.1412226 -0.06430383 -0.25321883
0.1043327 -0.090802886 -0.13699184 0.08129612 -0.32135046 0.2323893 -0.046574906 -0.26849377
0.13433228 -0.528997 -0.1457645 -0.09511256 0.1350465 0.42464358 0.08783497 0.07208627
0.025785021 0.15046848 0.08828715 -0.3055661 0.38885635 0.076208025 -0.105808675 0.09916484
0.44388014 -0.7797446 0.16195649 -0.07900958 0.103373416 -0.14718233 0.26889095 0.11530356
0.035932135 0.434024 0.012205605 0.095633194 -0.40360636 0.24829648 0.37130332 0.008523765
-0.14537147 -0.21430604 -0.4214418 -0.23225085 0.23045573 -0.06407865 -0.4692935 -0.10195591
-0.14645253 -0.13620345 -0.10842818 -0.21042117 0.07153371 0.5248863 0.2832665 0.56361574
-0.10535438 -0.2200077 0.37226567 -0.15132703 -0.3498543 -0.018780258 -0.0127272345 -0.012882311
-0.035918433 -0.2858075 0.1437651 -0.337004 -0.30980667 -0.02461537 -0.21555695 -0.19307363
0.2443938 0.5212581 0.0063524568 0.111503586 -0.44874585 0.17129643 -0.12734538 0.08048384
-0.16075082 0.013551202 0.057904914 -0.18038854 -0.18474954 0.08617087 -0.28846717 0.008664212
-0.27268487 -0.38390127 0.2620203 -0.0036840716 -0.078789346 -0.15800421 -0.06170206 -0.056855727
0.10351881 -0.1700131 -0.5410269 -0.2945303 0.43748263 0.04977533 0.08205773 -0.015331826
-0.0057142503 0.23352773 -0.10350914 -0.0008693456 -0.020849612 -0.12646554 0.24689732 0.32915068
-0.4789994 0.26157808 0.24185808 0.37814134 -0.11967502 -0.26055783 0.14053692 0.10724678
00000000: 3073 68bc 53fe afbd f418 02bf 516f 913c
00000010: 2ff1 5abd ded3 6cbe 9a43 3ebe 2bd9 773e
00000020: 10dc 4e3e af0f 033e 32e4 49be d552 ad3d
00000030: 48a3 0ebe dd8d 5ebe 2506 6c3d 863b 15bf
00000040: 2d4c f9bd 48a4 05bf f3ab 26be 53d7 ecbe
00000050: c120 ba3e 3c7f 803d 6d1a 0f3e e0ec b23d
00000060: 3439 343d 1148 7ebe db3b 413e d602 9dbe
00000070: c3b7 b7be ecdc 8c3e 4493 133c c514 aabe
00000080: 1c5d 1c3e 580c d43d c168 9fbe c139 11be
00000090: 4de6 3c3e 5ecb 9a3e d2f3 da3d 1903 e33b
000000a0: 380a b9be 2595 cfbe 4908 793c 6f28 e73d
000000b0: b32b 06bf 8e3e d6be 6b48 30bd a533 61be
000000c0: deb2 ae3d cb9a e63d 57d9 9dbe 5b64 9bbe
000000d0: aa7f d8bd 83c2 9f3e a1f4 5cbd 84b1 173e
000000e0: 7215 b13e 2a6f ac3e 1494 b6bc 2061 9dbe
000000f0: c093 edbd 0479 093e 2f58 ac3d d33a a5bd
00000100: 8dc5 183e c439 fabd 9ace 6c3e b88e aebe
00000110: 13f4 71be 8b00 b43d 0ae5 c63e 20d3 85bd
00000120: 028b 4f3d 37e4 873e 33b3 3c3e f654 0b3e
00000130: c574 0f3d cf2a 22bf 2b92 1e3e 7dd7 bbbc
00000140: 5c44 51be faa5 913e 0f64 f2be 39ec 503e
00000150: 37e6 073f 6431 3a3f 066b 59be d386 10be
00000160: 2f6d c93d b6bb 203e 299e e43d af42 6cbe
00000170: d247 49be c49d df3d 1107 c0bb dbf7 e33c
00000180: 9bbb 7dbe 124b 983e e620 babe a99a de3e
00000190: eac7 da3d 3735 d93d b92c 013c d8d7 be3b
000001a0: 8061 c13d 97a4 833d df8b a93d 837a 433e
000001b0: 9ef7 b4bd 99c7 8fbe 00f8 963d 8a2d 4bbe
000001c0: 8975 3a3e 8150 45bd 51a2 64be 65a0 d33e
000001d0: 528d 72be 2725 aebe 7ed3 5fbe b931 88bd
000001e0: f71d 3a3e b555 903e 222a 333e 0443 84be
000001f0: 9fcf ad3e d9c7 c83d 9672 a13d 7bc9 333e
00000200: 78b9 c03e a75f f8bd 97ca 053e e0e5 f6be
00000210: 666b afbd a89c 103e bab1 83bd e6a5 81be
00000220: 62ac d53d ddf6 b9bd 9747 0cbe 957e a63d
00000230: 0c88 a4be 76f7 6d3e 54c5 3ebd 0478 89be
00000240: 678e 093e 596c 07bf 4a43 15be 60ca c2bd
00000250: a149 0a3e e26a d93e d2e2 b33d f7a1 933d
00000260: 1c3b d33c 6914 1a3e e5cf b43d 2973 9cbe
00000270: 2e18 c73e f412 9c3d 38b2 d8bd f016 cb3d
00000280: 4244 e33e 589d 47bf ecd7 253e c6cf a1bd
00000290: 71b5 d33d f7b6 16be 13ac 893e 4624 ec3d
000002a0: 932d 133d 6538 de3e 05fa 473c 56db c33d
000002b0: 7ea5 cebe 6f41 7e3e 781b be3e 43a7 0b3c
000002c0: 42dc 14be 0b73 5bbe 38c7 d7be 2bd3 6dbe
000002d0: 96fc 6b3e ab3b 83bd 3d47 f0be 43ce d0bd
000002e0: a7f7 15be eb78 0bbe 980f debd a678 57be
000002f0: 4480 923d f35e 063f 4f08 913e 1f49 103f
00000300: 0ac4 d7bd b349 61be 9b99 be3e 79f5 1abe
00000310: 1a20 b3be 0ed9 99bc e485 50bc 5410 53bc
00000320: 351f 13bd 5c55 92be 2937 133e ca8b acbe
00000330: fb9e 9ebe 2ca6 c9bc f6ba 5cbe 18b5 45be
00000340: 5e42 7a3e 2c71 053f 4528 d03b fe5b e43d
00000350: 04c2 e5be 5568 2f3e d466 02be b6d4 a43d
00000360: dd9b 24be dc05 5e3c b42d 6d3d c6b7 38be
00000370: fc2e 3dbe 5a7a b03d f8b1 93be 57f4 0d3c
00000380: 5a9d 8bbe b58e c4be 8627 863e 7770 71bb
00000390: 4f5c a1bd dbcb 21be 4dbb 7cbd 8de1 68bd
000003a0: ab01 d43d ea17 2ebe bd80 0abf adcc 96be
000003b0: b9fd df3e 37e1 4b3d e20d a83d 5732 7bbc
000003c0: 9b3e bbbb e521 6f3e 9afc d3bd cce4 63ba
000003d0: cecc aabc 2f80 01be a7d2 7c3e 7086 a83e
000003e0: 693f f5be 90ed 853e a5a9 773e be9b c13e
000003f0: 2d18 f5bd d667 85be e9e8 0f3e 33a4 db3d

fc2.bias f4 [128]
0.18811862 0.11685245 -0.34774598 -0.23510042 -0.003218032 -0.08208744 -0.070557766 -0.100565515
-0.1198462 -0.243025 -0.28545174 -0.039634172 0.047150996 -0.15297116 -0.29080188 0.06531024
-0.12996562 -0.018857101 -0.25725934 -0.010512967 -0.3371284 -0.20953259 -0.060072083 0.30213466
-0.054987248 -0.27550295 0.09214365 -0.50639474 0.0138094835 -0.007618604 -0.18367851 0.15843308
-0.16273041 0.17584817 -0.023587588 -0.19803327 -0.2657104 0.13363376 0.11432914 -0.07190495
-0.06429897 -0.6110201 -0.060073767 -0.29313877 -0.355852 -0.2797895 -0.037207555 -0.19611293
0.017434934 -0.2985393 -0.41855288 -0.18979116 -0.043023843 -0.21221372 0.083200894 -0.13037738
-0.24512447 0.010013382 0.27019623 -0.034752365 0.027813632 -0.14170876 -0.36655933 -0.06347868
-0.5942115 -0.29696375 0.027926568 0.18994126 -0.40811792 -0.2483391 -0.0047544036 0.048465252
0.1009956 -0.41243604 -0.107017145 -0.21355298 -0.30664244 -0.0641235 -0.10884462 -0.1639485
0.10227008 -0.116008885 0.1964136 -0.1870463 -0.3162155 -0.14923061 -0.5429614 0.06027459
-0.3161379 0.2575821 -0.08600297 -0.10149397 -0.24694534 0.17026402 0.19522 0.15576716
-0.16101368 -0.25438392 -0.032399278 -0.38324624 -0.024502605 -0.15953447 0.009777347 -0.41436872
-0.030263884 -0.16688421 -0.16323064 0.09962337 -0.0503691 -0.10647767 -0.4408762 -0.16165465
-0.39171842 -0.21762449 -0.30746683 0.007900514 0.218135 -0.12935455 -0.47530603 -0.05728292
0.028684337 0.21543734 -0.10110021 -0.1679934 0.05810239 -0.03727441 -0.1228184 -0.25365365
00000000: 2ba2 403e 5650 ef3d c30b b2be 2abe 70be
00000010: 9ee5 52bb 761d a8bd 9780 90bd 4bf5 cdbd
00000020: ed71 f5bd 8cdb 78be bb26 92be 7157 22bd
00000030: 6721 413d 79a4 1cbe fce3 94be 60c1 853d
00000040: b515 05be 357a 9abc 7fb7 83be 943e 2cbc
00000050: 189c acbe b68f 56be 250e 76bd 65b1 9a3e
00000060: 4f3a 61bd b90e 8dbe cfb5 bc3d 16a3 01bf
00000070: 2c41 623c 7ca5 f9bb 3816 3cbe 483c 223e
00000080: cda2 26be 8b11 343e c23a c1bc 3cc9 4abe
00000090: 320b 88be 4ad7 083e 6525 ea3d e742 93bd
000000a0: 2eaf 83bd d06b 1cbf e90f 76bd 4916 96be
000000b0: 3c32 b6be 9240 8fbe f366 18bd d4d1 48be
000000c0: b5d3 8e3c 25da 98be 904c d6be 9d58 42be
000000d0: c539 30bd 8e4e 59be 3b65 aa3d a681 05be
000000e0: e901 7bbe 2b0f 243c 2957 8a3e 7f58 0ebd
000000f0: 6ad9 e33c 1a1c 11be aaad bbbe 1c01 82bd
00000100: 3f1e 18bf a20b 98be 42c6 e43c f67f 423e
00000110: d5f4 d0be 9b4c 7ebe d4ca 9bbb 8083 463d
00000120: c8d6 ce3d d12a d3be ce2b dbbd a2ad 5abe
00000130: 3d00 9dbe 2e53 83bd eee9 debd 1ee2 27be
00000140: fa72 d13d 1196 edbd a620 493e 1189 3fbe
00000150: ffe6 a1be e9cf 18be 85ff 0abf 7de2 763d
00000160: d4dc a1be cde1 833e 5322 b0bd 12dc cfbd
00000170: 3ddf 7cbe b159 2e3e c0e7 473e 6d81 1f3e
00000180: c5e0 24be 9c3e 82be 1bb5 04bd da38 c4be
00000190: b0b9 c8bc 015d 23be 2a31 203c 2328 d4be
000001a0: f7eb f7bc b2e3 2abe ef25 27be 5607 cc3d
000001b0: d44f 4ebd f710 dabd 86ba e1be cc88 25be
000001c0: 518f c8be f4d8 5ebe 4b6c 9dbe 2871 013c
000001d0: c85e 5f3e 8575 04be 505b f3be 7fa1 6abd
000001e0: 6afb ea3c 9b9b 5c3e a00d cfbd 7606 2cbe
000001f0: c6fc 6d3d 0dad 18bd 3788 fbbd e4de 81be

fc3.weight f4 [4, 128]
-0.3355788 -0.37682533 0.14525618 -0.08754385 1.202309 -0.6584472 -0.74258554 0.6893985
0.0587363 -0.24949898 0.22018288 -0.081226856 -0.35116506 0.045284186 0.020618215 -0.295261
0.14199279 -0.06314041 -0.34987476 0.27648497 -0.08197612 0.5348365 -0.06783556 -0.35062355
-0.28767842 -0.015444957 0.4277106 0.17879611 -0.24582052 0.18978919 0.116342895 -0.9038865
-0.20086607 0.17597924 -0.12319166 0.57596695 0.11129129 -0.25948396 0.12751651 -0.49276316
-0.01567424 0.03495117 -0.91607386 0.7380756 0.30082038 -0.5552419 0.43281528 0.39339
-0.39626655 0.2322319 0.5403433 -0.30677503 0.45705885 -0.038689524 0.095807746 -0.34101504
-0.086795636 -0.60862845 -0.48412713 -0.038399834 -0.26091254 0.32336745 0.22356045 0.48778448
0.60652965 0.03914334 0.17355338 0.69922453 0.13323772 -0.029676864 -0.008977514 0.3730285
-0.57202697 -0.20855285 -0.87995327 -0.44369772 0.2597042 -0.052959472 0.09287258 0.1255853
0.13935673 0.014070029 -0.280869 0.45836973 -0.28092203 0.55538 0.8025528 -0.47429636
0.015746456 0.48512477 0.33414787 1.1229259 -0.8758866 0.13053527 -0.074992955 -0.48133373
0.27034846 0.27403456 0.14983234 -0.37623116 0.06890693 -0.08660392 -0.11840232 0.90831083
-0.19844621 0.51167274 -0.18318903 -0.12868738 0.3926589 0.014799109 0.74481744 0.26573372
0.011255131 0.061043255 0.47796232 0.4476482 -0.39252385 0.5369358 -1.1562916 0.18163513
-0.40668073 -0.37667727 -0.13494448 0.1620685 0.4653502 0.43872535 -0.166369 -0.045406174
0.28529957 0.73869467 -0.07000986 -0.38813263 0.14839654 -0.035049036 -0.18229014 -0.41669828
0.7182237 -0.08103801 0.04253651 1.7313683 -0.5100531 -0.07626858 1.0798249 -0.36309588
1.1010865 0.040157955 -0.2028144 -0.2439806 0.11797493 0.24897653 0.295898 -0.6258607
0.30650106 -0.05966293 -0.47771356 0.43747938 0.5148387 0.22233894 0.711092 0.28580615
-0.615736 0.28258717 -0.28958112 0.6021315 -0.29605484 -0.3548385 0.101829685 -0.08259858
-0.57242 0.48433796 0.33455935 0.1783898 -0.28637964 0.7600456 -0.48674336 0.58447844
-0.18201531 -0.003507645 0.18542242 -0.859923 0.13676307 0.9864343 -0.26596713 -0.44548038
-0.060913183 -0.08811899 -0.18363968 -0.10744125 0.3532603 0.23073027 1.1013986 0.101114646
-0.3613187 0.17976025 -0.051448725 -0.26284072 -0.6555645 0.06982487 -0.19828857 -0.14102912
-0.097993135 -0.069443494 -0.19671518 0.9601772 0.35481095 0.0888706 0.24307157 -0.5837959
-0.41212 -0.25093424 -0.15264235 -0.07207037 0.59375924 0.45132026 0.14463636 -0.16915935
1.1157783 -0.48599178 0.21021655 0.15262318 0.13328546 -0.18603222 -0.13695674 -0.7442375
-0.30623996 -0.41228816 0.28208897 0.05990886 0.54839885 0.09156332 -0.038940977 -0.15768506
0.6568934 0.62374926 -0.1953921 0.13544634 0.2512041 -0.24384338 0.3186082 0.091993086
-0.52076656 0.03333849 -0.20009664 -0.3333797 -0.13353077 -0.40981433 0.37050316 0.007048587
-0.17823228 -0.20274875 0.90282744 -0.4637849 -0.45938796 -0.47707984 -0.009842163 0.6288339
00000000: fcd0 abbe 40ef c0be 09be 143e 314a b3bd
00000010: 43e5 993f ff8f 28bf 161a 3ebf 6c7c 303f
00000020: 7995 703d a97c 7fbe 9f77 613e 445a a6bd
00000030: e8cb b3be e97b 393d 88e7 a83c 732c 97be
00000040: 8f66 113e c24f 81bd c922 b3be 708f 8d3e
00000050: 19e3 a7bd 0beb 083f 5fed 8abd ee84 b3be
00000060: 964a 93be d80c 7dbc e2fc da3e 5416 373e
00000070: 60b8 7bbe 1958 423e 2f45 ee3d 1b65 67bf
00000080: d6af 4dbe e733 343e e94b fcbd 9272 133f
00000090: b0ec e33d 15db 84be b093 023e 744b fcbe
000000a0: 4467 80bc f528 0f3d d183 6abf 86f2 3c3f
000000b0: 2105 9a3e 5524 0ebf f799 dd3e 6a6a c93e
000000c0: 73e3 cabe 33ce 6d3e f053 0a3f 9e11 9dbe
000000d0: 9e03 ea3e e878 1ebd da36 c43d 8699 aebe
000000e0: e9c1 b1bd 13cf 1bbf 83df f7be 2549 1dbd
000000f0: 5496 85be 6b90 a53e 08ed 643e e3be f93e
00000100: 8745 1b3f c454 203d fab7 313e 6100 333f
00000110: 786f 083e e51c f3bc 6c16 13bc 97fd be3e
00000120: 5c70 12bf e18e 55be 9e44 61bf 592c e3be
00000130: f3f7 843e 08ec 58bd fb33 be3d 6f99 003e
00000140: 88b3 0e3e fb85 663c 10ce 8fbe 70af ea3e
00000150: 03d5 8fbe 622d 0e3f 1a74 4d3f f9d6 f2be
00000160: b6fe 803c 4662 f83e 6e15 ab3e 09bc 8f3f
00000170: 1b3a 60bf 0aab 053e e895 99bd 6071 f6be
00000180: 1d6b 8a3e 424e 8c3e a66d 193e 5fa1 c0be
00000190: 141f 8d3d 655d b1bd ea7c f2bd 0f87 683f
000001a0: 7c35 4bbe fcfc 023f e895 3bbe a0c6 03be
000001b0: 960a c93e f677 723c 5bac 3e3f 400e 883e
000001c0: 7167 383c 7e08 7a3d 7ab7 f43e 2532 e53e
000001d0: e3f8 c8be a074 093f 5d01 94bf 8ffe 393e
000001e0: 7538 d0be d8db c0be e32e 0abe 49f5 253e
000001f0: 6242 ee3e 9ca0 e03e a35c 2abe d3fb 39bd
00000200: c912 923e 181b 3d3f 5461 8fbd 52b9 c6be
00000210: 43f5 173e 948f 0fbd 44aa 3abe 7a59 d5be
00000220: 82dd 373f 42f7 a5bd c33a 2e3d 7a9d dd3f
00000230: d792 02bf b432 9cbd b437 8a3f b4e7 b9be
00000240: 67f0 8c3f ab7c 243d 94ae 4fbe 0dd6 79be
00000250: d79c f13d b4f3 7e3e f17f 973e 6838 20bf
00000260: b5ed 9c3e 1e61 74bd df96 f4be 4cfd df3e
00000270: 78cc 033f d2ac 633e 200a 363f 2f55 923e
00000280: e0a0 1dbf 44af 903e fa43 94be 4a25 1a3f
00000290: 8094 97be 64ad b5be 158c d03d 7229 a9bd
000002a0: 1e8a 12bf 25fb f73e 5d4b ab3e d1ab 363e
000002b0: 5aa0 92be 5992 423f 6d36 f9be 61a0 153f
000002c0: 3962 3abe 85e0 65bb 60df 3d3e ea23 5cbf
000002d0: 9e0b 0c3e f586 7c3f d82c 88be 0116 e4be
000002e0: 1a80 79bd bb77 b4bd 0a0c 3cbe 280a dcbd
000002f0: 89de b43e 8e44 6c3e a1fa 8c3f 3215 cf3d
00000300: c4fe b8be 1213 383e e6bb 52bd 0f93 86be
00000310: 13d3 27bf 5700 8f3d 290c 4bbe f069 10be
00000320: a0b0 c8bd 6438 8ebd b46f 49be 2cce 753f
00000330: c8a9 b53e ca01 b63d c1e7 783e a673 15bf
00000340: 6501 d3be 747a 80be 474e 1cbe a199 93bd
00000350: 9b00 183f 7313 e73e 8e1b 143e 1c38 2dbe
00000360: d3d1 8e3f ead3 f8be 0243 573e 4049 1c3e
00000370: fc7b 083e 3b7f 3ebe 633e 0cbe 5986 3ebf
00000380: 7ccb 9cbe 6f17 d3be f76d 903e fe62 753d
00000390: de63 0c3f 8d85 bb3d 9380 1fbd 3178 21be
000003a0: 2a2a 283f 08ae 1f3f de14 48be 72b2 0a3e
000003b0: d39d 803e 14b2 79be 9d20 a33e df66 bc3d
000003c0: f550 05bf f18d 083d 22e6 4cbe beb0 aabe
000003d0: 4abc 08be 2fd3 d1be 97b2 bd3e d5f7 e63b
000003e0: 8682 36be 5e9d 4fbe b31f 673f 3775 edbe
000003f0: e634 ebbe cf43 f4be 0641 21bc 42fb 203f

fc3.bias f4 [4]
-0.47244105 -0.041882064 0.01593017 -0.13236848
00000000: cbe3 f1be 878c 2bbd fd7f 823c 9a8b 07be
